{"format": "graph-model", "generatedBy": "2.13.1", "convertedBy": "TensorFlow.js Converter v4.14.0", "signature": {"inputs": {"token_ids:0": {"name": "token_ids:0", "dtype": "DT_INT32", "tensorShape": {"dim": [{"size": "-1"}, {"size": "-1"}]}}, "segment_ids:0": {"name": "segment_ids:0", "dtype": "DT_INT32", "tensorShape": {"dim": [{"size": "-1"}, {"size": "-1"}]}}, "padding_mask:0": {"name": "padding_mask:0", "dtype": "DT_INT32", "tensorShape": {"dim": [{"size": "-1"}, {"size": "-1"}]}}}, "outputs": {"logits": {"name": "Identity:0", "dtype": "DT_FLOAT", "tensorShape": {"dim": [{"size": "-1"}, {"size": "2"}]}}}}, "modelTopology": {"node": [{"name": "StatefulPartitionedCall/bert_classifier/bert_backbone/pooled_dense/Tensordot/Const", "op": "Const", "attr": {"dtype": {"type": "DT_INT32"}, "value": {"tensor": {"dtype": "DT_INT32", "tensorShape": {"dim": [{"size": "1"}]}}}}}, {"name": "StatefulPartitionedCall/bert_classifier/bert_backbone/pooled_dense/Tensordot/axes", "op": "Const", "attr": {"value": {"tensor": {"dtype": "DT_INT32", "tensorShape": {"dim": [{"size": "1"}]}}}, "dtype": {"type": "DT_INT32"}}}, {"name": "StatefulPartitionedCall/bert_classifier/bert_backbone/pooled_dense/Tensordot/GatherV2_1/axis", "op": "Const", "attr": {"dtype": {"type": "DT_INT32"}, "value": {"tensor": {"dtype": "DT_INT32", "tensorShape": {}}}}}, {"name": "StatefulPartitionedCall/bert_classifier/bert_backbone/pooled_dense/Tensordot/Const_1", "op": "Const", "attr": {"dtype": {"type": "DT_INT32"}, "value": {"tensor": {"dtype": "DT_INT32", "tensorShape": {"dim": [{"size": "1"}]}}}}}, {"name": "StatefulPartitionedCall/bert_classifier/bert_backbone/pooled_dense/Tensordot/ReadVariableOp", "op": "Const", "attr": {"dtype": {"type": "DT_FLOAT"}, "value": {"tensor": {"dtype": "DT_FLOAT", "tensorShape": {"dim": [{"size": "128"}, {"size": "128"}]}}}}}, {"name": "StatefulPartitionedCall/bert_classifier/bert_backbone/transformer_layer_1/feedforward_layer_norm/batchnorm/ReadVariableOp", "op": "Const", "attr": {"dtype": {"type": "DT_FLOAT"}, "value": {"tensor": {"dtype": "DT_FLOAT", "tensorShape": {"dim": [{"size": "128"}]}}}}}, {"name": "StatefulPartitionedCall/bert_classifier/bert_backbone/transformer_layer_1/feedforward_output_dense/Tensordot/Const", "op": "Const", "attr": {"dtype": {"type": "DT_INT32"}, "value": {"tensor": {"dtype": "DT_INT32", "tensorShape": {"dim": [{"size": "1"}]}}}}}, {"name": "StatefulPartitionedCall/bert_classifier/bert_backbone/transformer_layer_1/feedforward_output_dense/Tensordot/axes", "op": "Const", "attr": {"value": {"tensor": {"dtype": "DT_INT32", "tensorShape": {"dim": [{"size": "1"}]}}}, "dtype": {"type": "DT_INT32"}}}, {"name": "StatefulPartitionedCall/bert_classifier/bert_backbone/transformer_layer_1/feedforward_output_dense/Tensordot/GatherV2_1/axis", "op": "Const", "attr": {"dtype": {"type": "DT_INT32"}, "value": {"tensor": {"dtype": "DT_INT32", "tensorShape": {}}}}}, {"name": "StatefulPartitionedCall/bert_classifier/bert_backbone/transformer_layer_1/feedforward_output_dense/Tensordot/Const_1", "op": "Const", "attr": {"dtype": {"type": "DT_INT32"}, "value": {"tensor": {"dtype": "DT_INT32", "tensorShape": {"dim": [{"size": "1"}]}}}}}, {"name": "StatefulPartitionedCall/bert_classifier/bert_backbone/transformer_layer_1/feedforward_output_dense/Tensordot/ReadVariableOp", "op": "Const", "attr": {"dtype": {"type": "DT_FLOAT"}, "value": {"tensor": {"dtype": "DT_FLOAT", "tensorShape": {"dim": [{"size": "512"}, {"size": "128"}]}}}}}, {"name": "StatefulPartitionedCall/bert_classifier/bert_backbone/transformer_layer_1/feedforward_intermediate_dense/Gelu/mul/x", "op": "Const", "attr": {"dtype": {"type": "DT_FLOAT"}, "value": {"tensor": {"dtype": "DT_FLOAT", "tensorShape": {}}}}}, {"name": "StatefulPartitionedCall/bert_classifier/bert_backbone/transformer_layer_1/feedforward_intermediate_dense/Gelu/add_1/x", "op": "Const", "attr": {"value": {"tensor": {"dtype": "DT_FLOAT", "tensorShape": {}}}, "dtype": {"type": "DT_FLOAT"}}}, {"name": "StatefulPartitionedCall/bert_classifier/bert_backbone/transformer_layer_1/feedforward_intermediate_dense/Gelu/mul_2/x", "op": "Const", "attr": {"value": {"tensor": {"dtype": "DT_FLOAT", "tensorShape": {}}}, "dtype": {"type": "DT_FLOAT"}}}, {"name": "StatefulPartitionedCall/bert_classifier/bert_backbone/transformer_layer_1/feedforward_intermediate_dense/Gelu/Cast/x", "op": "Const", "attr": {"dtype": {"type": "DT_FLOAT"}, "value": {"tensor": {"dtype": "DT_FLOAT", "tensorShape": {}}}}}, {"name": "StatefulPartitionedCall/bert_classifier/bert_backbone/transformer_layer_1/feedforward_intermediate_dense/Tensordot/Const", "op": "Const", "attr": {"value": {"tensor": {"dtype": "DT_INT32", "tensorShape": {"dim": [{"size": "1"}]}}}, "dtype": {"type": "DT_INT32"}}}, {"name": "StatefulPartitionedCall/bert_classifier/bert_backbone/transformer_layer_1/feedforward_intermediate_dense/Tensordot/axes", "op": "Const", "attr": {"value": {"tensor": {"dtype": "DT_INT32", "tensorShape": {"dim": [{"size": "1"}]}}}, "dtype": {"type": "DT_INT32"}}}, {"name": "StatefulPartitionedCall/bert_classifier/bert_backbone/transformer_layer_1/feedforward_intermediate_dense/Tensordot/GatherV2_1/axis", "op": "Const", "attr": {"dtype": {"type": "DT_INT32"}, "value": {"tensor": {"dtype": "DT_INT32", "tensorShape": {}}}}}, {"name": "StatefulPartitionedCall/bert_classifier/bert_backbone/transformer_layer_1/feedforward_intermediate_dense/Tensordot/Const_1", "op": "Const", "attr": {"dtype": {"type": "DT_INT32"}, "value": {"tensor": {"dtype": "DT_INT32", "tensorShape": {"dim": [{"size": "1"}]}}}}}, {"name": "StatefulPartitionedCall/bert_classifier/bert_backbone/transformer_layer_1/feedforward_intermediate_dense/Tensordot/ReadVariableOp", "op": "Const", "attr": {"dtype": {"type": "DT_FLOAT"}, "value": {"tensor": {"dtype": "DT_FLOAT", "tensorShape": {"dim": [{"size": "128"}, {"size": "512"}]}}}}}, {"name": "StatefulPartitionedCall/bert_classifier/bert_backbone/transformer_layer_1/feedforward_intermediate_dense/Tensordot/free", "op": "Const", "attr": {"dtype": {"type": "DT_INT32"}, "value": {"tensor": {"dtype": "DT_INT32", "tensorShape": {"dim": [{"size": "2"}]}}}}}, {"name": "StatefulPartitionedCall/bert_classifier/bert_backbone/transformer_layer_1/feedforward_intermediate_dense/Tensordot/GatherV2/axis", "op": "Const", "attr": {"dtype": {"type": "DT_INT32"}, "value": {"tensor": {"dtype": "DT_INT32", "tensorShape": {}}}}}, {"name": "StatefulPartitionedCall/bert_classifier/bert_backbone/transformer_layer_1/feedforward_intermediate_dense/Tensordot/Const_2", "op": "Const", "attr": {"value": {"tensor": {"dtype": "DT_INT32", "tensorShape": {"dim": [{"size": "1"}]}}}, "dtype": {"type": "DT_INT32"}}}, {"name": "StatefulPartitionedCall/bert_classifier/bert_backbone/transformer_layer_1/feedforward_intermediate_dense/Tensordot/concat_1/axis", "op": "Const", "attr": {"dtype": {"type": "DT_INT32"}, "value": {"tensor": {"dtype": "DT_INT32", "tensorShape": {}}}}}, {"name": "StatefulPartitionedCall/bert_classifier/bert_backbone/transformer_layer_1/feedforward_intermediate_dense/BiasAdd/ReadVariableOp", "op": "Const", "attr": {"value": {"tensor": {"dtype": "DT_FLOAT", "tensorShape": {"dim": [{"size": "512"}]}}}, "dtype": {"type": "DT_FLOAT"}}}, {"name": "StatefulPartitionedCall/bert_classifier/bert_backbone/transformer_layer_1/feedforward_intermediate_dense/Gelu/Pow/y", "op": "Const", "attr": {"dtype": {"type": "DT_FLOAT"}, "value": {"tensor": {"dtype": "DT_FLOAT", "tensorShape": {}}}}}, {"name": "StatefulPartitionedCall/bert_classifier/bert_backbone/transformer_layer_1/feedforward_output_dense/Tensordot/free", "op": "Const", "attr": {"dtype": {"type": "DT_INT32"}, "value": {"tensor": {"dtype": "DT_INT32", "tensorShape": {"dim": [{"size": "2"}]}}}}}, {"name": "StatefulPartitionedCall/bert_classifier/bert_backbone/transformer_layer_1/feedforward_output_dense/Tensordot/GatherV2/axis", "op": "Const", "attr": {"dtype": {"type": "DT_INT32"}, "value": {"tensor": {"dtype": "DT_INT32", "tensorShape": {}}}}}, {"name": "StatefulPartitionedCall/bert_classifier/bert_backbone/transformer_layer_1/feedforward_output_dense/Tensordot/Const_2", "op": "Const", "attr": {"value": {"tensor": {"dtype": "DT_INT32", "tensorShape": {"dim": [{"size": "1"}]}}}, "dtype": {"type": "DT_INT32"}}}, {"name": "StatefulPartitionedCall/bert_classifier/bert_backbone/transformer_layer_1/feedforward_output_dense/Tensordot/concat_1/axis", "op": "Const", "attr": {"value": {"tensor": {"dtype": "DT_INT32", "tensorShape": {}}}, "dtype": {"type": "DT_INT32"}}}, {"name": "StatefulPartitionedCall/bert_classifier/bert_backbone/transformer_layer_1/feedforward_output_dense/BiasAdd/ReadVariableOp", "op": "Const", "attr": {"dtype": {"type": "DT_FLOAT"}, "value": {"tensor": {"dtype": "DT_FLOAT", "tensorShape": {"dim": [{"size": "128"}]}}}}}, {"name": "StatefulPartitionedCall/bert_classifier/bert_backbone/transformer_layer_1/self_attention_layer_norm/batchnorm/ReadVariableOp", "op": "Const", "attr": {"value": {"tensor": {"dtype": "DT_FLOAT", "tensorShape": {"dim": [{"size": "128"}]}}}, "dtype": {"type": "DT_FLOAT"}}}, {"name": "StatefulPartitionedCall/bert_classifier/bert_backbone/transformer_layer_1/self_attention_layer/key/einsum/Einsum/ReadVariableOp", "op": "Const", "attr": {"value": {"tensor": {"dtype": "DT_FLOAT", "tensorShape": {"dim": [{"size": "128"}, {"size": "2"}, {"size": "64"}]}}}, "dtype": {"type": "DT_FLOAT"}}}, {"name": "StatefulPartitionedCall/bert_classifier/bert_backbone/transformer_layer_1/self_attention_layer/key/add/ReadVariableOp", "op": "Const", "attr": {"dtype": {"type": "DT_FLOAT"}, "value": {"tensor": {"dtype": "DT_FLOAT", "tensorShape": {"dim": [{"size": "2"}, {"size": "64"}]}}}}}, {"name": "StatefulPartitionedCall/bert_classifier/bert_backbone/transformer_layer_1/self_attention_layer/query/einsum/Einsum/ReadVariableOp", "op": "Const", "attr": {"value": {"tensor": {"dtype": "DT_FLOAT", "tensorShape": {"dim": [{"size": "128"}, {"size": "2"}, {"size": "64"}]}}}, "dtype": {"type": "DT_FLOAT"}}}, {"name": "StatefulPartitionedCall/bert_classifier/bert_backbone/transformer_layer_1/self_attention_layer/query/add/ReadVariableOp", "op": "Const", "attr": {"dtype": {"type": "DT_FLOAT"}, "value": {"tensor": {"dtype": "DT_FLOAT", "tensorShape": {"dim": [{"size": "2"}, {"size": "64"}]}}}}}, {"name": "StatefulPartitionedCall/bert_classifier/bert_backbone/transformer_layer_1/self_attention_layer/Mul/y", "op": "Const", "attr": {"value": {"tensor": {"dtype": "DT_FLOAT", "tensorShape": {}}}, "dtype": {"type": "DT_FLOAT"}}}, {"name": "StatefulPartitionedCall/bert_classifier/bert_backbone/transformer_layer_1/self_attention_layer/softmax/sub/x", "op": "Const", "attr": {"value": {"tensor": {"dtype": "DT_FLOAT", "tensorShape": {}}}, "dtype": {"type": "DT_FLOAT"}}}, {"name": "StatefulPartitionedCall/bert_classifier/bert_backbone/transformer_layer_1/ExpandDims/dim", "op": "Const", "attr": {"dtype": {"type": "DT_INT32"}, "value": {"tensor": {"dtype": "DT_INT32", "tensorShape": {}}}}}, {"name": "StatefulPartitionedCall/bert_classifier/bert_backbone/transformer_layer_1/self_attention_layer/ExpandDims/dim", "op": "Const", "attr": {"dtype": {"type": "DT_INT32"}, "value": {"tensor": {"dtype": "DT_INT32", "tensorShape": {}}}}}, {"name": "StatefulPartitionedCall/bert_classifier/bert_backbone/transformer_layer_1/self_attention_layer/softmax/mul/y", "op": "Const", "attr": {"value": {"tensor": {"dtype": "DT_FLOAT", "tensorShape": {}}}, "dtype": {"type": "DT_FLOAT"}}}, {"name": "StatefulPartitionedCall/bert_classifier/bert_backbone/transformer_layer_1/self_attention_layer/value/einsum/Einsum/ReadVariableOp", "op": "Const", "attr": {"value": {"tensor": {"dtype": "DT_FLOAT", "tensorShape": {"dim": [{"size": "128"}, {"size": "2"}, {"size": "64"}]}}}, "dtype": {"type": "DT_FLOAT"}}}, {"name": "StatefulPartitionedCall/bert_classifier/bert_backbone/transformer_layer_1/self_attention_layer/value/add/ReadVariableOp", "op": "Const", "attr": {"dtype": {"type": "DT_FLOAT"}, "value": {"tensor": {"dtype": "DT_FLOAT", "tensorShape": {"dim": [{"size": "2"}, {"size": "64"}]}}}}}, {"name": "StatefulPartitionedCall/bert_classifier/bert_backbone/transformer_layer_1/self_attention_layer/attention_output/einsum/Einsum/ReadVariableOp", "op": "Const", "attr": {"dtype": {"type": "DT_FLOAT"}, "value": {"tensor": {"dtype": "DT_FLOAT", "tensorShape": {"dim": [{"size": "2"}, {"size": "64"}, {"size": "128"}]}}}}}, {"name": "StatefulPartitionedCall/bert_classifier/bert_backbone/transformer_layer_1/self_attention_layer/attention_output/add/ReadVariableOp", "op": "Const", "attr": {"value": {"tensor": {"dtype": "DT_FLOAT", "tensorShape": {"dim": [{"size": "128"}]}}}, "dtype": {"type": "DT_FLOAT"}}}, {"name": "StatefulPartitionedCall/bert_classifier/bert_backbone/transformer_layer_0/feedforward_layer_norm/batchnorm/ReadVariableOp", "op": "Const", "attr": {"dtype": {"type": "DT_FLOAT"}, "value": {"tensor": {"dtype": "DT_FLOAT", "tensorShape": {"dim": [{"size": "128"}]}}}}}, {"name": "StatefulPartitionedCall/bert_classifier/bert_backbone/transformer_layer_0/feedforward_output_dense/Tensordot/Const", "op": "Const", "attr": {"value": {"tensor": {"dtype": "DT_INT32", "tensorShape": {"dim": [{"size": "1"}]}}}, "dtype": {"type": "DT_INT32"}}}, {"name": "StatefulPartitionedCall/bert_classifier/bert_backbone/transformer_layer_0/feedforward_output_dense/Tensordot/axes", "op": "Const", "attr": {"dtype": {"type": "DT_INT32"}, "value": {"tensor": {"dtype": "DT_INT32", "tensorShape": {"dim": [{"size": "1"}]}}}}}, {"name": "StatefulPartitionedCall/bert_classifier/bert_backbone/transformer_layer_0/feedforward_output_dense/Tensordot/GatherV2_1/axis", "op": "Const", "attr": {"dtype": {"type": "DT_INT32"}, "value": {"tensor": {"dtype": "DT_INT32", "tensorShape": {}}}}}, {"name": "StatefulPartitionedCall/bert_classifier/bert_backbone/transformer_layer_0/feedforward_output_dense/Tensordot/Const_1", "op": "Const", "attr": {"dtype": {"type": "DT_INT32"}, "value": {"tensor": {"dtype": "DT_INT32", "tensorShape": {"dim": [{"size": "1"}]}}}}}, {"name": "StatefulPartitionedCall/bert_classifier/bert_backbone/transformer_layer_0/feedforward_output_dense/Tensordot/ReadVariableOp", "op": "Const", "attr": {"dtype": {"type": "DT_FLOAT"}, "value": {"tensor": {"dtype": "DT_FLOAT", "tensorShape": {"dim": [{"size": "512"}, {"size": "128"}]}}}}}, {"name": "StatefulPartitionedCall/bert_classifier/bert_backbone/transformer_layer_0/feedforward_intermediate_dense/Gelu/mul/x", "op": "Const", "attr": {"value": {"tensor": {"dtype": "DT_FLOAT", "tensorShape": {}}}, "dtype": {"type": "DT_FLOAT"}}}, {"name": "StatefulPartitionedCall/bert_classifier/bert_backbone/transformer_layer_0/feedforward_intermediate_dense/Gelu/add_1/x", "op": "Const", "attr": {"dtype": {"type": "DT_FLOAT"}, "value": {"tensor": {"dtype": "DT_FLOAT", "tensorShape": {}}}}}, {"name": "StatefulPartitionedCall/bert_classifier/bert_backbone/transformer_layer_0/feedforward_intermediate_dense/Gelu/mul_2/x", "op": "Const", "attr": {"dtype": {"type": "DT_FLOAT"}, "value": {"tensor": {"dtype": "DT_FLOAT", "tensorShape": {}}}}}, {"name": "StatefulPartitionedCall/bert_classifier/bert_backbone/transformer_layer_0/feedforward_intermediate_dense/Gelu/Cast/x", "op": "Const", "attr": {"dtype": {"type": "DT_FLOAT"}, "value": {"tensor": {"dtype": "DT_FLOAT", "tensorShape": {}}}}}, {"name": "StatefulPartitionedCall/bert_classifier/bert_backbone/transformer_layer_0/feedforward_intermediate_dense/Tensordot/Const", "op": "Const", "attr": {"value": {"tensor": {"dtype": "DT_INT32", "tensorShape": {"dim": [{"size": "1"}]}}}, "dtype": {"type": "DT_INT32"}}}, {"name": "StatefulPartitionedCall/bert_classifier/bert_backbone/transformer_layer_0/feedforward_intermediate_dense/Tensordot/axes", "op": "Const", "attr": {"value": {"tensor": {"dtype": "DT_INT32", "tensorShape": {"dim": [{"size": "1"}]}}}, "dtype": {"type": "DT_INT32"}}}, {"name": "StatefulPartitionedCall/bert_classifier/bert_backbone/transformer_layer_0/feedforward_intermediate_dense/Tensordot/GatherV2_1/axis", "op": "Const", "attr": {"value": {"tensor": {"dtype": "DT_INT32", "tensorShape": {}}}, "dtype": {"type": "DT_INT32"}}}, {"name": "StatefulPartitionedCall/bert_classifier/bert_backbone/transformer_layer_0/feedforward_intermediate_dense/Tensordot/Const_1", "op": "Const", "attr": {"value": {"tensor": {"dtype": "DT_INT32", "tensorShape": {"dim": [{"size": "1"}]}}}, "dtype": {"type": "DT_INT32"}}}, {"name": "StatefulPartitionedCall/bert_classifier/bert_backbone/transformer_layer_0/feedforward_intermediate_dense/Tensordot/ReadVariableOp", "op": "Const", "attr": {"dtype": {"type": "DT_FLOAT"}, "value": {"tensor": {"dtype": "DT_FLOAT", "tensorShape": {"dim": [{"size": "128"}, {"size": "512"}]}}}}}, {"name": "StatefulPartitionedCall/bert_classifier/bert_backbone/transformer_layer_0/feedforward_intermediate_dense/Tensordot/free", "op": "Const", "attr": {"dtype": {"type": "DT_INT32"}, "value": {"tensor": {"dtype": "DT_INT32", "tensorShape": {"dim": [{"size": "2"}]}}}}}, {"name": "StatefulPartitionedCall/bert_classifier/bert_backbone/transformer_layer_0/feedforward_intermediate_dense/Tensordot/GatherV2/axis", "op": "Const", "attr": {"dtype": {"type": "DT_INT32"}, "value": {"tensor": {"dtype": "DT_INT32", "tensorShape": {}}}}}, {"name": "StatefulPartitionedCall/bert_classifier/bert_backbone/transformer_layer_0/feedforward_intermediate_dense/Tensordot/Const_2", "op": "Const", "attr": {"dtype": {"type": "DT_INT32"}, "value": {"tensor": {"dtype": "DT_INT32", "tensorShape": {"dim": [{"size": "1"}]}}}}}, {"name": "StatefulPartitionedCall/bert_classifier/bert_backbone/transformer_layer_0/feedforward_intermediate_dense/Tensordot/concat_1/axis", "op": "Const", "attr": {"dtype": {"type": "DT_INT32"}, "value": {"tensor": {"dtype": "DT_INT32", "tensorShape": {}}}}}, {"name": "StatefulPartitionedCall/bert_classifier/bert_backbone/transformer_layer_0/feedforward_intermediate_dense/BiasAdd/ReadVariableOp", "op": "Const", "attr": {"value": {"tensor": {"dtype": "DT_FLOAT", "tensorShape": {"dim": [{"size": "512"}]}}}, "dtype": {"type": "DT_FLOAT"}}}, {"name": "StatefulPartitionedCall/bert_classifier/bert_backbone/transformer_layer_0/feedforward_intermediate_dense/Gelu/Pow/y", "op": "Const", "attr": {"value": {"tensor": {"dtype": "DT_FLOAT", "tensorShape": {}}}, "dtype": {"type": "DT_FLOAT"}}}, {"name": "StatefulPartitionedCall/bert_classifier/bert_backbone/transformer_layer_0/feedforward_output_dense/Tensordot/free", "op": "Const", "attr": {"dtype": {"type": "DT_INT32"}, "value": {"tensor": {"dtype": "DT_INT32", "tensorShape": {"dim": [{"size": "2"}]}}}}}, {"name": "StatefulPartitionedCall/bert_classifier/bert_backbone/transformer_layer_0/feedforward_output_dense/Tensordot/GatherV2/axis", "op": "Const", "attr": {"dtype": {"type": "DT_INT32"}, "value": {"tensor": {"dtype": "DT_INT32", "tensorShape": {}}}}}, {"name": "StatefulPartitionedCall/bert_classifier/bert_backbone/transformer_layer_0/feedforward_output_dense/Tensordot/Const_2", "op": "Const", "attr": {"value": {"tensor": {"dtype": "DT_INT32", "tensorShape": {"dim": [{"size": "1"}]}}}, "dtype": {"type": "DT_INT32"}}}, {"name": "StatefulPartitionedCall/bert_classifier/bert_backbone/transformer_layer_0/feedforward_output_dense/Tensordot/concat_1/axis", "op": "Const", "attr": {"value": {"tensor": {"dtype": "DT_INT32", "tensorShape": {}}}, "dtype": {"type": "DT_INT32"}}}, {"name": "StatefulPartitionedCall/bert_classifier/bert_backbone/transformer_layer_0/feedforward_output_dense/BiasAdd/ReadVariableOp", "op": "Const", "attr": {"value": {"tensor": {"dtype": "DT_FLOAT", "tensorShape": {"dim": [{"size": "128"}]}}}, "dtype": {"type": "DT_FLOAT"}}}, {"name": "StatefulPartitionedCall/bert_classifier/bert_backbone/transformer_layer_0/self_attention_layer_norm/batchnorm/ReadVariableOp", "op": "Const", "attr": {"dtype": {"type": "DT_FLOAT"}, "value": {"tensor": {"dtype": "DT_FLOAT", "tensorShape": {"dim": [{"size": "128"}]}}}}}, {"name": "StatefulPartitionedCall/bert_classifier/bert_backbone/transformer_layer_0/self_attention_layer/key/einsum/Einsum/ReadVariableOp", "op": "Const", "attr": {"value": {"tensor": {"dtype": "DT_FLOAT", "tensorShape": {"dim": [{"size": "128"}, {"size": "2"}, {"size": "64"}]}}}, "dtype": {"type": "DT_FLOAT"}}}, {"name": "StatefulPartitionedCall/bert_classifier/bert_backbone/transformer_layer_0/self_attention_layer/key/add/ReadVariableOp", "op": "Const", "attr": {"value": {"tensor": {"dtype": "DT_FLOAT", "tensorShape": {"dim": [{"size": "2"}, {"size": "64"}]}}}, "dtype": {"type": "DT_FLOAT"}}}, {"name": "StatefulPartitionedCall/bert_classifier/bert_backbone/transformer_layer_0/self_attention_layer/query/einsum/Einsum/ReadVariableOp", "op": "Const", "attr": {"value": {"tensor": {"dtype": "DT_FLOAT", "tensorShape": {"dim": [{"size": "128"}, {"size": "2"}, {"size": "64"}]}}}, "dtype": {"type": "DT_FLOAT"}}}, {"name": "StatefulPartitionedCall/bert_classifier/bert_backbone/transformer_layer_0/self_attention_layer/query/add/ReadVariableOp", "op": "Const", "attr": {"value": {"tensor": {"dtype": "DT_FLOAT", "tensorShape": {"dim": [{"size": "2"}, {"size": "64"}]}}}, "dtype": {"type": "DT_FLOAT"}}}, {"name": "StatefulPartitionedCall/bert_classifier/bert_backbone/transformer_layer_0/self_attention_layer/Mul/y", "op": "Const", "attr": {"dtype": {"type": "DT_FLOAT"}, "value": {"tensor": {"dtype": "DT_FLOAT", "tensorShape": {}}}}}, {"name": "StatefulPartitionedCall/bert_classifier/bert_backbone/transformer_layer_0/self_attention_layer/softmax/sub/x", "op": "Const", "attr": {"value": {"tensor": {"dtype": "DT_FLOAT", "tensorShape": {}}}, "dtype": {"type": "DT_FLOAT"}}}, {"name": "StatefulPartitionedCall/bert_classifier/bert_backbone/transformer_layer_0/ExpandDims/dim", "op": "Const", "attr": {"value": {"tensor": {"dtype": "DT_INT32", "tensorShape": {}}}, "dtype": {"type": "DT_INT32"}}}, {"name": "StatefulPartitionedCall/bert_classifier/bert_backbone/transformer_layer_0/self_attention_layer/ExpandDims/dim", "op": "Const", "attr": {"value": {"tensor": {"dtype": "DT_INT32", "tensorShape": {}}}, "dtype": {"type": "DT_INT32"}}}, {"name": "StatefulPartitionedCall/bert_classifier/bert_backbone/transformer_layer_0/self_attention_layer/softmax/mul/y", "op": "Const", "attr": {"dtype": {"type": "DT_FLOAT"}, "value": {"tensor": {"dtype": "DT_FLOAT", "tensorShape": {}}}}}, {"name": "StatefulPartitionedCall/bert_classifier/bert_backbone/transformer_layer_0/self_attention_layer/value/einsum/Einsum/ReadVariableOp", "op": "Const", "attr": {"dtype": {"type": "DT_FLOAT"}, "value": {"tensor": {"dtype": "DT_FLOAT", "tensorShape": {"dim": [{"size": "128"}, {"size": "2"}, {"size": "64"}]}}}}}, {"name": "StatefulPartitionedCall/bert_classifier/bert_backbone/transformer_layer_0/self_attention_layer/value/add/ReadVariableOp", "op": "Const", "attr": {"dtype": {"type": "DT_FLOAT"}, "value": {"tensor": {"dtype": "DT_FLOAT", "tensorShape": {"dim": [{"size": "2"}, {"size": "64"}]}}}}}, {"name": "StatefulPartitionedCall/bert_classifier/bert_backbone/transformer_layer_0/self_attention_layer/attention_output/einsum/Einsum/ReadVariableOp", "op": "Const", "attr": {"value": {"tensor": {"dtype": "DT_FLOAT", "tensorShape": {"dim": [{"size": "2"}, {"size": "64"}, {"size": "128"}]}}}, "dtype": {"type": "DT_FLOAT"}}}, {"name": "StatefulPartitionedCall/bert_classifier/bert_backbone/transformer_layer_0/self_attention_layer/attention_output/add/ReadVariableOp", "op": "Const", "attr": {"value": {"tensor": {"dtype": "DT_FLOAT", "tensorShape": {"dim": [{"size": "128"}]}}}, "dtype": {"type": "DT_FLOAT"}}}, {"name": "StatefulPartitionedCall/bert_classifier/bert_backbone/embeddings_layer_norm/batchnorm/ReadVariableOp", "op": "Const", "attr": {"value": {"tensor": {"dtype": "DT_FLOAT", "tensorShape": {"dim": [{"size": "128"}]}}}, "dtype": {"type": "DT_FLOAT"}}}, {"name": "StatefulPartitionedCall/bert_classifier/bert_backbone/position_embedding/Slice/ReadVariableOp", "op": "Const", "attr": {"dtype": {"type": "DT_FLOAT"}, "value": {"tensor": {"dtype": "DT_FLOAT", "tensorShape": {"dim": [{"size": "512"}, {"size": "128"}]}}}}}, {"name": "StatefulPartitionedCall/bert_classifier/bert_backbone/position_embedding/Slice/begin", "op": "Const", "attr": {"value": {"tensor": {"dtype": "DT_INT32", "tensorShape": {"dim": [{"size": "2"}]}}}, "dtype": {"type": "DT_INT32"}}}, {"name": "StatefulPartitionedCall/bert_classifier/bert_backbone/position_embedding/Slice/size/1", "op": "Const", "attr": {"dtype": {"type": "DT_INT32"}, "value": {"tensor": {"dtype": "DT_INT32", "tensorShape": {}}}}}, {"name": "StatefulPartitionedCall/bert_classifier/bert_backbone/position_embedding/strided_slice/stack", "op": "Const", "attr": {"value": {"tensor": {"dtype": "DT_INT32", "tensorShape": {"dim": [{"size": "1"}]}}}, "dtype": {"type": "DT_INT32"}}}, {"name": "StatefulPartitionedCall/bert_classifier/bert_backbone/position_embedding/strided_slice/stack_1", "op": "Const", "attr": {"dtype": {"type": "DT_INT32"}, "value": {"tensor": {"dtype": "DT_INT32", "tensorShape": {"dim": [{"size": "1"}]}}}}}, {"name": "StatefulPartitionedCall/bert_classifier/bert_backbone/position_embedding/strided_slice/stack_2", "op": "Const", "attr": {"value": {"tensor": {"dtype": "DT_INT32", "tensorShape": {"dim": [{"size": "1"}]}}}, "dtype": {"type": "DT_INT32"}}}, {"name": "unknown", "op": "Const", "attr": {"dtype": {"type": "DT_FLOAT"}, "value": {"tensor": {"dtype": "DT_FLOAT", "tensorShape": {"dim": [{"size": "30522"}, {"size": "128"}]}}}}}, {"name": "StatefulPartitionedCall/bert_classifier/bert_backbone/token_embedding/embedding_lookup/axis", "op": "Const", "attr": {"value": {"tensor": {"dtype": "DT_INT32", "tensorShape": {}}}, "dtype": {"type": "DT_INT32"}}}, {"name": "StatefulPartitionedCall/bert_classifier/bert_backbone/position_embedding/strided_slice_1/stack", "op": "Const", "attr": {"value": {"tensor": {"dtype": "DT_INT32", "tensorShape": {"dim": [{"size": "1"}]}}}, "dtype": {"type": "DT_INT32"}}}, {"name": "StatefulPartitionedCall/bert_classifier/bert_backbone/position_embedding/strided_slice_1/stack_1", "op": "Const", "attr": {"dtype": {"type": "DT_INT32"}, "value": {"tensor": {"dtype": "DT_INT32", "tensorShape": {"dim": [{"size": "1"}]}}}}}, {"name": "StatefulPartitionedCall/bert_classifier/bert_backbone/position_embedding/strided_slice_1/stack_2", "op": "Const", "attr": {"dtype": {"type": "DT_INT32"}, "value": {"tensor": {"dtype": "DT_INT32", "tensorShape": {"dim": [{"size": "1"}]}}}}}, {"name": "StatefulPartitionedCall/bert_classifier/bert_backbone/position_embedding/packed/2", "op": "Const", "attr": {"value": {"tensor": {"dtype": "DT_INT32", "tensorShape": {}}}, "dtype": {"type": "DT_INT32"}}}, {"name": "unknown_1", "op": "Const", "attr": {"dtype": {"type": "DT_FLOAT"}, "value": {"tensor": {"dtype": "DT_FLOAT", "tensorShape": {"dim": [{"size": "2"}, {"size": "128"}]}}}}}, {"name": "StatefulPartitionedCall/bert_classifier/bert_backbone/segment_embedding/embedding_lookup/axis", "op": "Const", "attr": {"dtype": {"type": "DT_INT32"}, "value": {"tensor": {"dtype": "DT_INT32", "tensorShape": {}}}}}, {"name": "StatefulPartitionedCall/bert_classifier/bert_backbone/embeddings_layer_norm/moments/mean/reduction_indices", "op": "Const", "attr": {"dtype": {"type": "DT_INT32"}, "value": {"tensor": {"dtype": "DT_INT32", "tensorShape": {"dim": [{"size": "1"}]}}}}}, {"name": "StatefulPartitionedCall/bert_classifier/bert_backbone/embeddings_layer_norm/moments/variance/reduction_indices", "op": "Const", "attr": {"dtype": {"type": "DT_INT32"}, "value": {"tensor": {"dtype": "DT_INT32", "tensorShape": {"dim": [{"size": "1"}]}}}}}, {"name": "StatefulPartitionedCall/bert_classifier/bert_backbone/embeddings_layer_norm/batchnorm/add/y", "op": "Const", "attr": {"dtype": {"type": "DT_FLOAT"}, "value": {"tensor": {"dtype": "DT_FLOAT", "tensorShape": {}}}}}, {"name": "StatefulPartitionedCall/bert_classifier/bert_backbone/embeddings_layer_norm/batchnorm/mul/ReadVariableOp", "op": "Const", "attr": {"dtype": {"type": "DT_FLOAT"}, "value": {"tensor": {"dtype": "DT_FLOAT", "tensorShape": {"dim": [{"size": "128"}]}}}}}, {"name": "StatefulPartitionedCall/bert_classifier/bert_backbone/transformer_layer_0/self_attention_layer_norm/moments/mean/reduction_indices", "op": "Const", "attr": {"value": {"tensor": {"dtype": "DT_INT32", "tensorShape": {"dim": [{"size": "1"}]}}}, "dtype": {"type": "DT_INT32"}}}, {"name": "StatefulPartitionedCall/bert_classifier/bert_backbone/transformer_layer_0/self_attention_layer_norm/moments/variance/reduction_indices", "op": "Const", "attr": {"value": {"tensor": {"dtype": "DT_INT32", "tensorShape": {"dim": [{"size": "1"}]}}}, "dtype": {"type": "DT_INT32"}}}, {"name": "StatefulPartitionedCall/bert_classifier/bert_backbone/transformer_layer_0/self_attention_layer_norm/batchnorm/add/y", "op": "Const", "attr": {"value": {"tensor": {"dtype": "DT_FLOAT", "tensorShape": {}}}, "dtype": {"type": "DT_FLOAT"}}}, {"name": "StatefulPartitionedCall/bert_classifier/bert_backbone/transformer_layer_0/self_attention_layer_norm/batchnorm/mul/ReadVariableOp", "op": "Const", "attr": {"value": {"tensor": {"dtype": "DT_FLOAT", "tensorShape": {"dim": [{"size": "128"}]}}}, "dtype": {"type": "DT_FLOAT"}}}, {"name": "StatefulPartitionedCall/bert_classifier/bert_backbone/transformer_layer_0/feedforward_layer_norm/moments/mean/reduction_indices", "op": "Const", "attr": {"dtype": {"type": "DT_INT32"}, "value": {"tensor": {"dtype": "DT_INT32", "tensorShape": {"dim": [{"size": "1"}]}}}}}, {"name": "StatefulPartitionedCall/bert_classifier/bert_backbone/transformer_layer_0/feedforward_layer_norm/moments/variance/reduction_indices", "op": "Const", "attr": {"value": {"tensor": {"dtype": "DT_INT32", "tensorShape": {"dim": [{"size": "1"}]}}}, "dtype": {"type": "DT_INT32"}}}, {"name": "StatefulPartitionedCall/bert_classifier/bert_backbone/transformer_layer_0/feedforward_layer_norm/batchnorm/add/y", "op": "Const", "attr": {"dtype": {"type": "DT_FLOAT"}, "value": {"tensor": {"dtype": "DT_FLOAT", "tensorShape": {}}}}}, {"name": "StatefulPartitionedCall/bert_classifier/bert_backbone/transformer_layer_0/feedforward_layer_norm/batchnorm/mul/ReadVariableOp", "op": "Const", "attr": {"dtype": {"type": "DT_FLOAT"}, "value": {"tensor": {"dtype": "DT_FLOAT", "tensorShape": {"dim": [{"size": "128"}]}}}}}, {"name": "StatefulPartitionedCall/bert_classifier/bert_backbone/transformer_layer_1/self_attention_layer_norm/moments/mean/reduction_indices", "op": "Const", "attr": {"dtype": {"type": "DT_INT32"}, "value": {"tensor": {"dtype": "DT_INT32", "tensorShape": {"dim": [{"size": "1"}]}}}}}, {"name": "StatefulPartitionedCall/bert_classifier/bert_backbone/transformer_layer_1/self_attention_layer_norm/moments/variance/reduction_indices", "op": "Const", "attr": {"value": {"tensor": {"dtype": "DT_INT32", "tensorShape": {"dim": [{"size": "1"}]}}}, "dtype": {"type": "DT_INT32"}}}, {"name": "StatefulPartitionedCall/bert_classifier/bert_backbone/transformer_layer_1/self_attention_layer_norm/batchnorm/add/y", "op": "Const", "attr": {"value": {"tensor": {"dtype": "DT_FLOAT", "tensorShape": {}}}, "dtype": {"type": "DT_FLOAT"}}}, {"name": "StatefulPartitionedCall/bert_classifier/bert_backbone/transformer_layer_1/self_attention_layer_norm/batchnorm/mul/ReadVariableOp", "op": "Const", "attr": {"value": {"tensor": {"dtype": "DT_FLOAT", "tensorShape": {"dim": [{"size": "128"}]}}}, "dtype": {"type": "DT_FLOAT"}}}, {"name": "StatefulPartitionedCall/bert_classifier/bert_backbone/transformer_layer_1/feedforward_layer_norm/moments/mean/reduction_indices", "op": "Const", "attr": {"dtype": {"type": "DT_INT32"}, "value": {"tensor": {"dtype": "DT_INT32", "tensorShape": {"dim": [{"size": "1"}]}}}}}, {"name": "StatefulPartitionedCall/bert_classifier/bert_backbone/transformer_layer_1/feedforward_layer_norm/moments/variance/reduction_indices", "op": "Const", "attr": {"dtype": {"type": "DT_INT32"}, "value": {"tensor": {"dtype": "DT_INT32", "tensorShape": {"dim": [{"size": "1"}]}}}}}, {"name": "StatefulPartitionedCall/bert_classifier/bert_backbone/transformer_layer_1/feedforward_layer_norm/batchnorm/add/y", "op": "Const", "attr": {"value": {"tensor": {"dtype": "DT_FLOAT", "tensorShape": {}}}, "dtype": {"type": "DT_FLOAT"}}}, {"name": "StatefulPartitionedCall/bert_classifier/bert_backbone/transformer_layer_1/feedforward_layer_norm/batchnorm/mul/ReadVariableOp", "op": "Const", "attr": {"value": {"tensor": {"dtype": "DT_FLOAT", "tensorShape": {"dim": [{"size": "128"}]}}}, "dtype": {"type": "DT_FLOAT"}}}, {"name": "StatefulPartitionedCall/bert_classifier/bert_backbone/pooled_dense/Tensordot/free", "op": "Const", "attr": {"dtype": {"type": "DT_INT32"}, "value": {"tensor": {"dtype": "DT_INT32", "tensorShape": {"dim": [{"size": "2"}]}}}}}, {"name": "StatefulPartitionedCall/bert_classifier/bert_backbone/pooled_dense/Tensordot/GatherV2/axis", "op": "Const", "attr": {"value": {"tensor": {"dtype": "DT_INT32", "tensorShape": {}}}, "dtype": {"type": "DT_INT32"}}}, {"name": "StatefulPartitionedCall/bert_classifier/bert_backbone/pooled_dense/Tensordot/Const_2", "op": "Const", "attr": {"value": {"tensor": {"dtype": "DT_INT32", "tensorShape": {"dim": [{"size": "1"}]}}}, "dtype": {"type": "DT_INT32"}}}, {"name": "StatefulPartitionedCall/bert_classifier/bert_backbone/pooled_dense/Tensordot/concat_1/axis", "op": "Const", "attr": {"dtype": {"type": "DT_INT32"}, "value": {"tensor": {"dtype": "DT_INT32", "tensorShape": {}}}}}, {"name": "StatefulPartitionedCall/bert_classifier/bert_backbone/pooled_dense/BiasAdd/ReadVariableOp", "op": "Const", "attr": {"dtype": {"type": "DT_FLOAT"}, "value": {"tensor": {"dtype": "DT_FLOAT", "tensorShape": {"dim": [{"size": "128"}]}}}}}, {"name": "StatefulPartitionedCall/bert_classifier/bert_backbone/tf.__operators__.getitem/strided_slice/stack", "op": "Const", "attr": {"value": {"tensor": {"dtype": "DT_INT32", "tensorShape": {"dim": [{"size": "3"}]}}}, "dtype": {"type": "DT_INT32"}}}, {"name": "StatefulPartitionedCall/bert_classifier/bert_backbone/tf.__operators__.getitem/strided_slice/stack_1", "op": "Const", "attr": {"value": {"tensor": {"dtype": "DT_INT32", "tensorShape": {"dim": [{"size": "3"}]}}}, "dtype": {"type": "DT_INT32"}}}, {"name": "StatefulPartitionedCall/bert_classifier/bert_backbone/tf.__operators__.getitem/strided_slice/stack_2", "op": "Const", "attr": {"value": {"tensor": {"dtype": "DT_INT32", "tensorShape": {"dim": [{"size": "3"}]}}}, "dtype": {"type": "DT_INT32"}}}, {"name": "StatefulPartitionedCall/bert_classifier/logits/MatMul/ReadVariableOp", "op": "Const", "attr": {"value": {"tensor": {"dtype": "DT_FLOAT", "tensorShape": {"dim": [{"size": "128"}, {"size": "2"}]}}}, "dtype": {"type": "DT_FLOAT"}}}, {"name": "StatefulPartitionedCall/bert_classifier/logits/BiasAdd/ReadVariableOp", "op": "Const", "attr": {"dtype": {"type": "DT_FLOAT"}, "value": {"tensor": {"dtype": "DT_FLOAT", "tensorShape": {"dim": [{"size": "2"}]}}}}}, {"name": "padding_mask", "op": "Placeholder", "attr": {"shape": {"shape": {"dim": [{"size": "-1"}, {"size": "-1"}]}}, "dtype": {"type": "DT_INT32"}}}, {"name": "segment_ids", "op": "Placeholder", "attr": {"dtype": {"type": "DT_INT32"}, "shape": {"shape": {"dim": [{"size": "-1"}, {"size": "-1"}]}}}}, {"name": "token_ids", "op": "Placeholder", "attr": {"shape": {"shape": {"dim": [{"size": "-1"}, {"size": "-1"}]}}, "dtype": {"type": "DT_INT32"}}}, {"name": "StatefulPartitionedCall/bert_classifier/bert_backbone/transformer_layer_1/ExpandDims", "op": "ExpandDims", "input": ["padding_mask", "StatefulPartitionedCall/bert_classifier/bert_backbone/transformer_layer_1/ExpandDims/dim"], "attr": {"T": {"type": "DT_INT32"}, "Tdim": {"type": "DT_INT32"}}}, {"name": "StatefulPartitionedCall/bert_classifier/bert_backbone/transformer_layer_0/ExpandDims", "op": "ExpandDims", "input": ["padding_mask", "StatefulPartitionedCall/bert_classifier/bert_backbone/transformer_layer_0/ExpandDims/dim"], "attr": {"Tdim": {"type": "DT_INT32"}, "T": {"type": "DT_INT32"}}}, {"name": "StatefulPartitionedCall/bert_classifier/bert_backbone/segment_embedding/embedding_lookup", "op": "GatherV2", "input": ["unknown_1", "segment_ids", "StatefulPartitionedCall/bert_classifier/bert_backbone/segment_embedding/embedding_lookup/axis"], "attr": {"batch_dims": {"i": "0"}, "Tparams": {"type": "DT_FLOAT"}, "Taxis": {"type": "DT_INT32"}, "Tindices": {"type": "DT_INT32"}, "_has_manual_control_dependencies": {"b": true}}}, {"name": "StatefulPartitionedCall/bert_classifier/bert_backbone/token_embedding/embedding_lookup", "op": "GatherV2", "input": ["unknown", "token_ids", "StatefulPartitionedCall/bert_classifier/bert_backbone/token_embedding/embedding_lookup/axis"], "attr": {"Tindices": {"type": "DT_INT32"}, "Taxis": {"type": "DT_INT32"}, "_has_manual_control_dependencies": {"b": true}, "Tparams": {"type": "DT_FLOAT"}, "batch_dims": {"i": "0"}}}, {"name": "StatefulPartitionedCall/bert_classifier/bert_backbone/transformer_layer_1/self_attention_layer/ExpandDims", "op": "ExpandDims", "input": ["StatefulPartitionedCall/bert_classifier/bert_backbone/transformer_layer_1/ExpandDims", "StatefulPartitionedCall/bert_classifier/bert_backbone/transformer_layer_1/self_attention_layer/ExpandDims/dim"], "attr": {"Tdim": {"type": "DT_INT32"}, "T": {"type": "DT_INT32"}}}, {"name": "StatefulPartitionedCall/bert_classifier/bert_backbone/transformer_layer_0/self_attention_layer/ExpandDims", "op": "ExpandDims", "input": ["StatefulPartitionedCall/bert_classifier/bert_backbone/transformer_layer_0/ExpandDims", "StatefulPartitionedCall/bert_classifier/bert_backbone/transformer_layer_0/self_attention_layer/ExpandDims/dim"], "attr": {"Tdim": {"type": "DT_INT32"}, "T": {"type": "DT_INT32"}}}, {"name": "StatefulPartitionedCall/bert_classifier/bert_backbone/position_embedding/Shape", "op": "Shape", "input": ["StatefulPartitionedCall/bert_classifier/bert_backbone/token_embedding/embedding_lookup"], "attr": {"out_type": {"type": "DT_INT32"}, "T": {"type": "DT_FLOAT"}}, "experimentalType": {"typeId": "TFT_PRODUCT", "args": [{"typeId": "TFT_SHAPE_TENSOR", "args": [{"typeId": "TFT_INT32"}]}]}}, {"name": "StatefulPartitionedCall/bert_classifier/bert_backbone/transformer_layer_1/self_attention_layer/softmax/Cast", "op": "Cast", "input": ["StatefulPartitionedCall/bert_classifier/bert_backbone/transformer_layer_1/self_attention_layer/ExpandDims"], "attr": {"SrcT": {"type": "DT_INT32"}, "Truncate": {"b": false}, "DstT": {"type": "DT_FLOAT"}}}, {"name": "StatefulPartitionedCall/bert_classifier/bert_backbone/transformer_layer_0/self_attention_layer/softmax/Cast", "op": "Cast", "input": ["StatefulPartitionedCall/bert_classifier/bert_backbone/transformer_layer_0/self_attention_layer/ExpandDims"], "attr": {"Truncate": {"b": false}, "DstT": {"type": "DT_FLOAT"}, "SrcT": {"type": "DT_INT32"}}}, {"name": "StatefulPartitionedCall/bert_classifier/bert_backbone/position_embedding/strided_slice", "op": "StridedSlice", "input": ["StatefulPartitionedCall/bert_classifier/bert_backbone/position_embedding/Shape", "StatefulPartitionedCall/bert_classifier/bert_backbone/position_embedding/strided_slice/stack", "StatefulPartitionedCall/bert_classifier/bert_backbone/position_embedding/strided_slice/stack_1", "StatefulPartitionedCall/bert_classifier/bert_backbone/position_embedding/strided_slice/stack_2"], "attr": {"T": {"type": "DT_INT32"}, "shrink_axis_mask": {"i": "1"}, "Index": {"type": "DT_INT32"}, "begin_mask": {"i": "0"}, "new_axis_mask": {"i": "0"}, "end_mask": {"i": "0"}, "ellipsis_mask": {"i": "0"}}}, {"name": "StatefulPartitionedCall/bert_classifier/bert_backbone/position_embedding/strided_slice_1", "op": "StridedSlice", "input": ["StatefulPartitionedCall/bert_classifier/bert_backbone/position_embedding/Shape", "StatefulPartitionedCall/bert_classifier/bert_backbone/position_embedding/strided_slice_1/stack", "StatefulPartitionedCall/bert_classifier/bert_backbone/position_embedding/strided_slice_1/stack_1", "StatefulPartitionedCall/bert_classifier/bert_backbone/position_embedding/strided_slice_1/stack_2"], "attr": {"Index": {"type": "DT_INT32"}, "ellipsis_mask": {"i": "0"}, "T": {"type": "DT_INT32"}, "shrink_axis_mask": {"i": "1"}, "begin_mask": {"i": "0"}, "new_axis_mask": {"i": "0"}, "end_mask": {"i": "0"}}}, {"name": "StatefulPartitionedCall/bert_classifier/bert_backbone/transformer_layer_1/self_attention_layer/softmax/sub", "op": "Sub", "input": ["StatefulPartitionedCall/bert_classifier/bert_backbone/transformer_layer_1/self_attention_layer/softmax/sub/x", "StatefulPartitionedCall/bert_classifier/bert_backbone/transformer_layer_1/self_attention_layer/softmax/Cast"], "attr": {"T": {"type": "DT_FLOAT"}}}, {"name": "StatefulPartitionedCall/bert_classifier/bert_backbone/transformer_layer_0/self_attention_layer/softmax/sub", "op": "Sub", "input": ["StatefulPartitionedCall/bert_classifier/bert_backbone/transformer_layer_0/self_attention_layer/softmax/sub/x", "StatefulPartitionedCall/bert_classifier/bert_backbone/transformer_layer_0/self_attention_layer/softmax/Cast"], "attr": {"T": {"type": "DT_FLOAT"}}}, {"name": "StatefulPartitionedCall/bert_classifier/bert_backbone/position_embedding/Slice/size", "op": "Pack", "input": ["StatefulPartitionedCall/bert_classifier/bert_backbone/position_embedding/strided_slice_1", "StatefulPartitionedCall/bert_classifier/bert_backbone/position_embedding/Slice/size/1"], "attr": {"T": {"type": "DT_INT32"}, "N": {"i": "2"}, "axis": {"i": "0"}}}, {"name": "StatefulPartitionedCall/bert_classifier/bert_backbone/position_embedding/packed", "op": "Pack", "input": ["StatefulPartitionedCall/bert_classifier/bert_backbone/position_embedding/strided_slice", "StatefulPartitionedCall/bert_classifier/bert_backbone/position_embedding/strided_slice_1", "StatefulPartitionedCall/bert_classifier/bert_backbone/position_embedding/packed/2"], "attr": {"N": {"i": "3"}, "T": {"type": "DT_INT32"}, "axis": {"i": "0"}}}, {"name": "StatefulPartitionedCall/bert_classifier/bert_backbone/transformer_layer_1/self_attention_layer/softmax/mul", "op": "Mul", "input": ["StatefulPartitionedCall/bert_classifier/bert_backbone/transformer_layer_1/self_attention_layer/softmax/sub", "StatefulPartitionedCall/bert_classifier/bert_backbone/transformer_layer_1/self_attention_layer/softmax/mul/y"], "attr": {"T": {"type": "DT_FLOAT"}}}, {"name": "StatefulPartitionedCall/bert_classifier/bert_backbone/transformer_layer_0/self_attention_layer/softmax/mul", "op": "Mul", "input": ["StatefulPartitionedCall/bert_classifier/bert_backbone/transformer_layer_0/self_attention_layer/softmax/sub", "StatefulPartitionedCall/bert_classifier/bert_backbone/transformer_layer_0/self_attention_layer/softmax/mul/y"], "attr": {"T": {"type": "DT_FLOAT"}}}, {"name": "StatefulPartitionedCall/bert_classifier/bert_backbone/position_embedding/Slice", "op": "Slice", "input": ["StatefulPartitionedCall/bert_classifier/bert_backbone/position_embedding/Slice/ReadVariableOp", "StatefulPartitionedCall/bert_classifier/bert_backbone/position_embedding/Slice/begin", "StatefulPartitionedCall/bert_classifier/bert_backbone/position_embedding/Slice/size"], "attr": {"T": {"type": "DT_FLOAT"}, "Index": {"type": "DT_INT32"}}}, {"name": "StatefulPartitionedCall/bert_classifier/bert_backbone/position_embedding/BroadcastTo", "op": "BroadcastTo", "input": ["StatefulPartitionedCall/bert_classifier/bert_backbone/position_embedding/Slice", "StatefulPartitionedCall/bert_classifier/bert_backbone/position_embedding/packed"], "attr": {"T": {"type": "DT_FLOAT"}, "Tidx": {"type": "DT_INT32"}}}, {"name": "StatefulPartitionedCall/bert_classifier/bert_backbone/add/add", "op": "AddV2", "input": ["StatefulPartitionedCall/bert_classifier/bert_backbone/token_embedding/embedding_lookup", "StatefulPartitionedCall/bert_classifier/bert_backbone/position_embedding/BroadcastTo"], "attr": {"T": {"type": "DT_FLOAT"}}}, {"name": "StatefulPartitionedCall/bert_classifier/bert_backbone/add/add_1", "op": "AddV2", "input": ["StatefulPartitionedCall/bert_classifier/bert_backbone/add/add", "StatefulPartitionedCall/bert_classifier/bert_backbone/segment_embedding/embedding_lookup"], "attr": {"T": {"type": "DT_FLOAT"}}}, {"name": "StatefulPartitionedCall/bert_classifier/bert_backbone/embeddings_layer_norm/moments/mean", "op": "Mean", "input": ["StatefulPartitionedCall/bert_classifier/bert_backbone/add/add_1", "StatefulPartitionedCall/bert_classifier/bert_backbone/embeddings_layer_norm/moments/mean/reduction_indices"], "attr": {"Tidx": {"type": "DT_INT32"}, "keep_dims": {"b": true}, "T": {"type": "DT_FLOAT"}}}, {"name": "StatefulPartitionedCall/bert_classifier/bert_backbone/embeddings_layer_norm/moments/SquaredDifference", "op": "SquaredDifference", "input": ["StatefulPartitionedCall/bert_classifier/bert_backbone/add/add_1", "StatefulPartitionedCall/bert_classifier/bert_backbone/embeddings_layer_norm/moments/mean"], "attr": {"T": {"type": "DT_FLOAT"}}}, {"name": "StatefulPartitionedCall/bert_classifier/bert_backbone/embeddings_layer_norm/moments/variance", "op": "Mean", "input": ["StatefulPartitionedCall/bert_classifier/bert_backbone/embeddings_layer_norm/moments/SquaredDifference", "StatefulPartitionedCall/bert_classifier/bert_backbone/embeddings_layer_norm/moments/variance/reduction_indices"], "attr": {"Tidx": {"type": "DT_INT32"}, "T": {"type": "DT_FLOAT"}, "keep_dims": {"b": true}}}, {"name": "StatefulPartitionedCall/bert_classifier/bert_backbone/embeddings_layer_norm/batchnorm/add", "op": "AddV2", "input": ["StatefulPartitionedCall/bert_classifier/bert_backbone/embeddings_layer_norm/moments/variance", "StatefulPartitionedCall/bert_classifier/bert_backbone/embeddings_layer_norm/batchnorm/add/y"], "attr": {"T": {"type": "DT_FLOAT"}}}, {"name": "StatefulPartitionedCall/bert_classifier/bert_backbone/embeddings_layer_norm/batchnorm/Rsqrt", "op": "Rsqrt", "input": ["StatefulPartitionedCall/bert_classifier/bert_backbone/embeddings_layer_norm/batchnorm/add"], "attr": {"T": {"type": "DT_FLOAT"}}}, {"name": "StatefulPartitionedCall/bert_classifier/bert_backbone/embeddings_layer_norm/batchnorm/mul", "op": "Mul", "input": ["StatefulPartitionedCall/bert_classifier/bert_backbone/embeddings_layer_norm/batchnorm/Rsqrt", "StatefulPartitionedCall/bert_classifier/bert_backbone/embeddings_layer_norm/batchnorm/mul/ReadVariableOp"], "attr": {"T": {"type": "DT_FLOAT"}}}, {"name": "StatefulPartitionedCall/bert_classifier/bert_backbone/embeddings_layer_norm/batchnorm/mul_2", "op": "Mul", "input": ["StatefulPartitionedCall/bert_classifier/bert_backbone/embeddings_layer_norm/moments/mean", "StatefulPartitionedCall/bert_classifier/bert_backbone/embeddings_layer_norm/batchnorm/mul"], "attr": {"T": {"type": "DT_FLOAT"}}}, {"name": "StatefulPartitionedCall/bert_classifier/bert_backbone/embeddings_layer_norm/batchnorm/mul_1", "op": "Mul", "input": ["StatefulPartitionedCall/bert_classifier/bert_backbone/add/add_1", "StatefulPartitionedCall/bert_classifier/bert_backbone/embeddings_layer_norm/batchnorm/mul"], "attr": {"T": {"type": "DT_FLOAT"}}}, {"name": "StatefulPartitionedCall/bert_classifier/bert_backbone/embeddings_layer_norm/batchnorm/sub", "op": "Sub", "input": ["StatefulPartitionedCall/bert_classifier/bert_backbone/embeddings_layer_norm/batchnorm/ReadVariableOp", "StatefulPartitionedCall/bert_classifier/bert_backbone/embeddings_layer_norm/batchnorm/mul_2"], "attr": {"T": {"type": "DT_FLOAT"}}}, {"name": "StatefulPartitionedCall/bert_classifier/bert_backbone/embeddings_layer_norm/batchnorm/add_1", "op": "AddV2", "input": ["StatefulPartitionedCall/bert_classifier/bert_backbone/embeddings_layer_norm/batchnorm/mul_1", "StatefulPartitionedCall/bert_classifier/bert_backbone/embeddings_layer_norm/batchnorm/sub"], "attr": {"T": {"type": "DT_FLOAT"}}}, {"name": "StatefulPartitionedCall/bert_classifier/bert_backbone/transformer_layer_0/self_attention_layer/key/einsum/Einsum", "op": "Einsum", "input": ["StatefulPartitionedCall/bert_classifier/bert_backbone/embeddings_layer_norm/batchnorm/add_1", "StatefulPartitionedCall/bert_classifier/bert_backbone/transformer_layer_0/self_attention_layer/key/einsum/Einsum/ReadVariableOp"], "attr": {"T": {"type": "DT_FLOAT"}, "N": {"i": "2"}, "equation": {"s": "YWJjLGNkZS0+YWJkZQ=="}}}, {"name": "StatefulPartitionedCall/bert_classifier/bert_backbone/transformer_layer_0/self_attention_layer/query/einsum/Einsum", "op": "Einsum", "input": ["StatefulPartitionedCall/bert_classifier/bert_backbone/embeddings_layer_norm/batchnorm/add_1", "StatefulPartitionedCall/bert_classifier/bert_backbone/transformer_layer_0/self_attention_layer/query/einsum/Einsum/ReadVariableOp"], "attr": {"T": {"type": "DT_FLOAT"}, "equation": {"s": "YWJjLGNkZS0+YWJkZQ=="}, "N": {"i": "2"}}}, {"name": "StatefulPartitionedCall/bert_classifier/bert_backbone/transformer_layer_0/self_attention_layer/value/einsum/Einsum", "op": "Einsum", "input": ["StatefulPartitionedCall/bert_classifier/bert_backbone/embeddings_layer_norm/batchnorm/add_1", "StatefulPartitionedCall/bert_classifier/bert_backbone/transformer_layer_0/self_attention_layer/value/einsum/Einsum/ReadVariableOp"], "attr": {"N": {"i": "2"}, "equation": {"s": "YWJjLGNkZS0+YWJkZQ=="}, "T": {"type": "DT_FLOAT"}}}, {"name": "StatefulPartitionedCall/bert_classifier/bert_backbone/transformer_layer_0/self_attention_layer/key/add", "op": "AddV2", "input": ["StatefulPartitionedCall/bert_classifier/bert_backbone/transformer_layer_0/self_attention_layer/key/einsum/Einsum", "StatefulPartitionedCall/bert_classifier/bert_backbone/transformer_layer_0/self_attention_layer/key/add/ReadVariableOp"], "attr": {"T": {"type": "DT_FLOAT"}}}, {"name": "StatefulPartitionedCall/bert_classifier/bert_backbone/transformer_layer_0/self_attention_layer/query/add", "op": "AddV2", "input": ["StatefulPartitionedCall/bert_classifier/bert_backbone/transformer_layer_0/self_attention_layer/query/einsum/Einsum", "StatefulPartitionedCall/bert_classifier/bert_backbone/transformer_layer_0/self_attention_layer/query/add/ReadVariableOp"], "attr": {"T": {"type": "DT_FLOAT"}}}, {"name": "StatefulPartitionedCall/bert_classifier/bert_backbone/transformer_layer_0/self_attention_layer/value/add", "op": "AddV2", "input": ["StatefulPartitionedCall/bert_classifier/bert_backbone/transformer_layer_0/self_attention_layer/value/einsum/Einsum", "StatefulPartitionedCall/bert_classifier/bert_backbone/transformer_layer_0/self_attention_layer/value/add/ReadVariableOp"], "attr": {"T": {"type": "DT_FLOAT"}}}, {"name": "StatefulPartitionedCall/bert_classifier/bert_backbone/transformer_layer_0/self_attention_layer/Mul", "op": "Mul", "input": ["StatefulPartitionedCall/bert_classifier/bert_backbone/transformer_layer_0/self_attention_layer/query/add", "StatefulPartitionedCall/bert_classifier/bert_backbone/transformer_layer_0/self_attention_layer/Mul/y"], "attr": {"T": {"type": "DT_FLOAT"}}}, {"name": "StatefulPartitionedCall/bert_classifier/bert_backbone/transformer_layer_0/self_attention_layer/einsum/Einsum", "op": "Einsum", "input": ["StatefulPartitionedCall/bert_classifier/bert_backbone/transformer_layer_0/self_attention_layer/key/add", "StatefulPartitionedCall/bert_classifier/bert_backbone/transformer_layer_0/self_attention_layer/Mul"], "attr": {"N": {"i": "2"}, "T": {"type": "DT_FLOAT"}, "equation": {"s": "YWVjZCxhYmNkLT5hY2Jl"}}}, {"name": "StatefulPartitionedCall/bert_classifier/bert_backbone/transformer_layer_0/self_attention_layer/softmax/add", "op": "AddV2", "input": ["StatefulPartitionedCall/bert_classifier/bert_backbone/transformer_layer_0/self_attention_layer/einsum/Einsum", "StatefulPartitionedCall/bert_classifier/bert_backbone/transformer_layer_0/self_attention_layer/softmax/mul"], "attr": {"T": {"type": "DT_FLOAT"}}}, {"name": "StatefulPartitionedCall/bert_classifier/bert_backbone/transformer_layer_0/self_attention_layer/softmax/Softmax", "op": "Softmax", "input": ["StatefulPartitionedCall/bert_classifier/bert_backbone/transformer_layer_0/self_attention_layer/softmax/add"], "attr": {"T": {"type": "DT_FLOAT"}}}, {"name": "StatefulPartitionedCall/bert_classifier/bert_backbone/transformer_layer_0/self_attention_layer/einsum_1/Einsum", "op": "Einsum", "input": ["StatefulPartitionedCall/bert_classifier/bert_backbone/transformer_layer_0/self_attention_layer/softmax/Softmax", "StatefulPartitionedCall/bert_classifier/bert_backbone/transformer_layer_0/self_attention_layer/value/add"], "attr": {"T": {"type": "DT_FLOAT"}, "N": {"i": "2"}, "equation": {"s": "YWNiZSxhZWNkLT5hYmNk"}}}, {"name": "StatefulPartitionedCall/bert_classifier/bert_backbone/transformer_layer_0/self_attention_layer/attention_output/einsum/Einsum", "op": "Einsum", "input": ["StatefulPartitionedCall/bert_classifier/bert_backbone/transformer_layer_0/self_attention_layer/einsum_1/Einsum", "StatefulPartitionedCall/bert_classifier/bert_backbone/transformer_layer_0/self_attention_layer/attention_output/einsum/Einsum/ReadVariableOp"], "attr": {"N": {"i": "2"}, "T": {"type": "DT_FLOAT"}, "equation": {"s": "YWJjZCxjZGUtPmFiZQ=="}}}, {"name": "StatefulPartitionedCall/bert_classifier/bert_backbone/transformer_layer_0/self_attention_layer/attention_output/add", "op": "AddV2", "input": ["StatefulPartitionedCall/bert_classifier/bert_backbone/transformer_layer_0/self_attention_layer/attention_output/einsum/Einsum", "StatefulPartitionedCall/bert_classifier/bert_backbone/transformer_layer_0/self_attention_layer/attention_output/add/ReadVariableOp"], "attr": {"T": {"type": "DT_FLOAT"}}}, {"name": "StatefulPartitionedCall/bert_classifier/bert_backbone/transformer_layer_0/add", "op": "AddV2", "input": ["StatefulPartitionedCall/bert_classifier/bert_backbone/transformer_layer_0/self_attention_layer/attention_output/add", "StatefulPartitionedCall/bert_classifier/bert_backbone/embeddings_layer_norm/batchnorm/add_1"], "attr": {"T": {"type": "DT_FLOAT"}}}, {"name": "StatefulPartitionedCall/bert_classifier/bert_backbone/transformer_layer_0/self_attention_layer_norm/moments/mean", "op": "Mean", "input": ["StatefulPartitionedCall/bert_classifier/bert_backbone/transformer_layer_0/add", "StatefulPartitionedCall/bert_classifier/bert_backbone/transformer_layer_0/self_attention_layer_norm/moments/mean/reduction_indices"], "attr": {"Tidx": {"type": "DT_INT32"}, "keep_dims": {"b": true}, "T": {"type": "DT_FLOAT"}}}, {"name": "StatefulPartitionedCall/bert_classifier/bert_backbone/transformer_layer_0/self_attention_layer_norm/moments/SquaredDifference", "op": "SquaredDifference", "input": ["StatefulPartitionedCall/bert_classifier/bert_backbone/transformer_layer_0/add", "StatefulPartitionedCall/bert_classifier/bert_backbone/transformer_layer_0/self_attention_layer_norm/moments/mean"], "attr": {"T": {"type": "DT_FLOAT"}}}, {"name": "StatefulPartitionedCall/bert_classifier/bert_backbone/transformer_layer_0/self_attention_layer_norm/moments/variance", "op": "Mean", "input": ["StatefulPartitionedCall/bert_classifier/bert_backbone/transformer_layer_0/self_attention_layer_norm/moments/SquaredDifference", "StatefulPartitionedCall/bert_classifier/bert_backbone/transformer_layer_0/self_attention_layer_norm/moments/variance/reduction_indices"], "attr": {"keep_dims": {"b": true}, "T": {"type": "DT_FLOAT"}, "Tidx": {"type": "DT_INT32"}}}, {"name": "StatefulPartitionedCall/bert_classifier/bert_backbone/transformer_layer_0/self_attention_layer_norm/batchnorm/add", "op": "AddV2", "input": ["StatefulPartitionedCall/bert_classifier/bert_backbone/transformer_layer_0/self_attention_layer_norm/moments/variance", "StatefulPartitionedCall/bert_classifier/bert_backbone/transformer_layer_0/self_attention_layer_norm/batchnorm/add/y"], "attr": {"T": {"type": "DT_FLOAT"}}}, {"name": "StatefulPartitionedCall/bert_classifier/bert_backbone/transformer_layer_0/self_attention_layer_norm/batchnorm/Rsqrt", "op": "Rsqrt", "input": ["StatefulPartitionedCall/bert_classifier/bert_backbone/transformer_layer_0/self_attention_layer_norm/batchnorm/add"], "attr": {"T": {"type": "DT_FLOAT"}}}, {"name": "StatefulPartitionedCall/bert_classifier/bert_backbone/transformer_layer_0/self_attention_layer_norm/batchnorm/mul", "op": "Mul", "input": ["StatefulPartitionedCall/bert_classifier/bert_backbone/transformer_layer_0/self_attention_layer_norm/batchnorm/Rsqrt", "StatefulPartitionedCall/bert_classifier/bert_backbone/transformer_layer_0/self_attention_layer_norm/batchnorm/mul/ReadVariableOp"], "attr": {"T": {"type": "DT_FLOAT"}}}, {"name": "StatefulPartitionedCall/bert_classifier/bert_backbone/transformer_layer_0/self_attention_layer_norm/batchnorm/mul_2", "op": "Mul", "input": ["StatefulPartitionedCall/bert_classifier/bert_backbone/transformer_layer_0/self_attention_layer_norm/moments/mean", "StatefulPartitionedCall/bert_classifier/bert_backbone/transformer_layer_0/self_attention_layer_norm/batchnorm/mul"], "attr": {"T": {"type": "DT_FLOAT"}}}, {"name": "StatefulPartitionedCall/bert_classifier/bert_backbone/transformer_layer_0/self_attention_layer_norm/batchnorm/mul_1", "op": "Mul", "input": ["StatefulPartitionedCall/bert_classifier/bert_backbone/transformer_layer_0/add", "StatefulPartitionedCall/bert_classifier/bert_backbone/transformer_layer_0/self_attention_layer_norm/batchnorm/mul"], "attr": {"T": {"type": "DT_FLOAT"}}}, {"name": "StatefulPartitionedCall/bert_classifier/bert_backbone/transformer_layer_0/self_attention_layer_norm/batchnorm/sub", "op": "Sub", "input": ["StatefulPartitionedCall/bert_classifier/bert_backbone/transformer_layer_0/self_attention_layer_norm/batchnorm/ReadVariableOp", "StatefulPartitionedCall/bert_classifier/bert_backbone/transformer_layer_0/self_attention_layer_norm/batchnorm/mul_2"], "attr": {"T": {"type": "DT_FLOAT"}}}, {"name": "StatefulPartitionedCall/bert_classifier/bert_backbone/transformer_layer_0/self_attention_layer_norm/batchnorm/add_1", "op": "AddV2", "input": ["StatefulPartitionedCall/bert_classifier/bert_backbone/transformer_layer_0/self_attention_layer_norm/batchnorm/mul_1", "StatefulPartitionedCall/bert_classifier/bert_backbone/transformer_layer_0/self_attention_layer_norm/batchnorm/sub"], "attr": {"T": {"type": "DT_FLOAT"}}}, {"name": "StatefulPartitionedCall/bert_classifier/bert_backbone/transformer_layer_0/feedforward_intermediate_dense/Tensordot/Shape", "op": "Shape", "input": ["StatefulPartitionedCall/bert_classifier/bert_backbone/transformer_layer_0/self_attention_layer_norm/batchnorm/add_1"], "attr": {"out_type": {"type": "DT_INT32"}, "T": {"type": "DT_FLOAT"}}, "experimentalType": {"typeId": "TFT_PRODUCT", "args": [{"typeId": "TFT_SHAPE_TENSOR", "args": [{"typeId": "TFT_INT32"}]}]}}, {"name": "StatefulPartitionedCall/bert_classifier/bert_backbone/transformer_layer_0/feedforward_intermediate_dense/Tensordot/GatherV2_1", "op": "GatherV2", "input": ["StatefulPartitionedCall/bert_classifier/bert_backbone/transformer_layer_0/feedforward_intermediate_dense/Tensordot/Shape", "StatefulPartitionedCall/bert_classifier/bert_backbone/transformer_layer_0/feedforward_intermediate_dense/Tensordot/axes", "StatefulPartitionedCall/bert_classifier/bert_backbone/transformer_layer_0/feedforward_intermediate_dense/Tensordot/GatherV2_1/axis"], "attr": {"Tindices": {"type": "DT_INT32"}, "Taxis": {"type": "DT_INT32"}, "batch_dims": {"i": "0"}, "Tparams": {"type": "DT_INT32"}}}, {"name": "StatefulPartitionedCall/bert_classifier/bert_backbone/transformer_layer_0/feedforward_intermediate_dense/Tensordot/GatherV2", "op": "GatherV2", "input": ["StatefulPartitionedCall/bert_classifier/bert_backbone/transformer_layer_0/feedforward_intermediate_dense/Tensordot/Shape", "StatefulPartitionedCall/bert_classifier/bert_backbone/transformer_layer_0/feedforward_intermediate_dense/Tensordot/free", "StatefulPartitionedCall/bert_classifier/bert_backbone/transformer_layer_0/feedforward_intermediate_dense/Tensordot/GatherV2/axis"], "attr": {"batch_dims": {"i": "0"}, "Tindices": {"type": "DT_INT32"}, "Tparams": {"type": "DT_INT32"}, "Taxis": {"type": "DT_INT32"}}}, {"name": "StatefulPartitionedCall/bert_classifier/bert_backbone/transformer_layer_0/feedforward_intermediate_dense/Tensordot/Prod_1", "op": "Prod", "input": ["StatefulPartitionedCall/bert_classifier/bert_backbone/transformer_layer_0/feedforward_intermediate_dense/Tensordot/GatherV2_1", "StatefulPartitionedCall/bert_classifier/bert_backbone/transformer_layer_0/feedforward_intermediate_dense/Tensordot/Const_1"], "attr": {"keep_dims": {"b": false}, "T": {"type": "DT_INT32"}, "Tidx": {"type": "DT_INT32"}}}, {"name": "StatefulPartitionedCall/bert_classifier/bert_backbone/transformer_layer_0/feedforward_intermediate_dense/Tensordot/Prod", "op": "Prod", "input": ["StatefulPartitionedCall/bert_classifier/bert_backbone/transformer_layer_0/feedforward_intermediate_dense/Tensordot/GatherV2", "StatefulPartitionedCall/bert_classifier/bert_backbone/transformer_layer_0/feedforward_intermediate_dense/Tensordot/Const"], "attr": {"keep_dims": {"b": false}, "Tidx": {"type": "DT_INT32"}, "T": {"type": "DT_INT32"}}}, {"name": "StatefulPartitionedCall/bert_classifier/bert_backbone/transformer_layer_0/feedforward_intermediate_dense/Tensordot/concat_1", "op": "ConcatV2", "input": ["StatefulPartitionedCall/bert_classifier/bert_backbone/transformer_layer_0/feedforward_intermediate_dense/Tensordot/GatherV2", "StatefulPartitionedCall/bert_classifier/bert_backbone/transformer_layer_0/feedforward_intermediate_dense/Tensordot/Const_2", "StatefulPartitionedCall/bert_classifier/bert_backbone/transformer_layer_0/feedforward_intermediate_dense/Tensordot/concat_1/axis"], "attr": {"N": {"i": "2"}, "Tidx": {"type": "DT_INT32"}, "T": {"type": "DT_INT32"}}}, {"name": "StatefulPartitionedCall/bert_classifier/bert_backbone/transformer_layer_0/feedforward_intermediate_dense/Tensordot/stack", "op": "Pack", "input": ["StatefulPartitionedCall/bert_classifier/bert_backbone/transformer_layer_0/feedforward_intermediate_dense/Tensordot/Prod", "StatefulPartitionedCall/bert_classifier/bert_backbone/transformer_layer_0/feedforward_intermediate_dense/Tensordot/Prod_1"], "attr": {"N": {"i": "2"}, "T": {"type": "DT_INT32"}, "axis": {"i": "0"}}}, {"name": "StatefulPartitionedCall/bert_classifier/bert_backbone/transformer_layer_0/feedforward_intermediate_dense/Tensordot/Reshape", "op": "Reshape", "input": ["StatefulPartitionedCall/bert_classifier/bert_backbone/transformer_layer_0/self_attention_layer_norm/batchnorm/add_1", "StatefulPartitionedCall/bert_classifier/bert_backbone/transformer_layer_0/feedforward_intermediate_dense/Tensordot/stack"], "attr": {"Tshape": {"type": "DT_INT32"}, "T": {"type": "DT_FLOAT"}}}, {"name": "StatefulPartitionedCall/bert_classifier/bert_backbone/transformer_layer_0/feedforward_intermediate_dense/Tensordot/MatMul", "op": "MatMul", "input": ["StatefulPartitionedCall/bert_classifier/bert_backbone/transformer_layer_0/feedforward_intermediate_dense/Tensordot/Reshape", "StatefulPartitionedCall/bert_classifier/bert_backbone/transformer_layer_0/feedforward_intermediate_dense/Tensordot/ReadVariableOp"], "device": "/device:CPU:0", "attr": {"transpose_a": {"b": false}, "transpose_b": {"b": false}, "T": {"type": "DT_FLOAT"}}}, {"name": "StatefulPartitionedCall/bert_classifier/bert_backbone/transformer_layer_0/feedforward_intermediate_dense/Tensordot", "op": "Reshape", "input": ["StatefulPartitionedCall/bert_classifier/bert_backbone/transformer_layer_0/feedforward_intermediate_dense/Tensordot/MatMul", "StatefulPartitionedCall/bert_classifier/bert_backbone/transformer_layer_0/feedforward_intermediate_dense/Tensordot/concat_1"], "attr": {"Tshape": {"type": "DT_INT32"}, "T": {"type": "DT_FLOAT"}}}, {"name": "StatefulPartitionedCall/bert_classifier/bert_backbone/transformer_layer_0/feedforward_intermediate_dense/BiasAdd", "op": "BiasAdd", "input": ["StatefulPartitionedCall/bert_classifier/bert_backbone/transformer_layer_0/feedforward_intermediate_dense/Tensordot", "StatefulPartitionedCall/bert_classifier/bert_backbone/transformer_layer_0/feedforward_intermediate_dense/BiasAdd/ReadVariableOp"], "attr": {"T": {"type": "DT_FLOAT"}, "data_format": {"s": "TkhXQw=="}}}, {"name": "StatefulPartitionedCall/bert_classifier/bert_backbone/transformer_layer_0/feedforward_intermediate_dense/Gelu/mul", "op": "Mul", "input": ["StatefulPartitionedCall/bert_classifier/bert_backbone/transformer_layer_0/feedforward_intermediate_dense/Gelu/mul/x", "StatefulPartitionedCall/bert_classifier/bert_backbone/transformer_layer_0/feedforward_intermediate_dense/BiasAdd"], "attr": {"T": {"type": "DT_FLOAT"}, "_grappler_ArithmeticOptimizer_MinimizeBroadcasts": {"b": true}}}, {"name": "StatefulPartitionedCall/bert_classifier/bert_backbone/transformer_layer_0/feedforward_intermediate_dense/Gelu/Pow", "op": "Pow", "input": ["StatefulPartitionedCall/bert_classifier/bert_backbone/transformer_layer_0/feedforward_intermediate_dense/BiasAdd", "StatefulPartitionedCall/bert_classifier/bert_backbone/transformer_layer_0/feedforward_intermediate_dense/Gelu/Pow/y"], "attr": {"T": {"type": "DT_FLOAT"}}}, {"name": "StatefulPartitionedCall/bert_classifier/bert_backbone/transformer_layer_0/feedforward_intermediate_dense/Gelu/mul_1", "op": "Mul", "input": ["StatefulPartitionedCall/bert_classifier/bert_backbone/transformer_layer_0/feedforward_intermediate_dense/Gelu/Cast/x", "StatefulPartitionedCall/bert_classifier/bert_backbone/transformer_layer_0/feedforward_intermediate_dense/Gelu/Pow"], "attr": {"T": {"type": "DT_FLOAT"}}}, {"name": "StatefulPartitionedCall/bert_classifier/bert_backbone/transformer_layer_0/feedforward_intermediate_dense/Gelu/add", "op": "AddV2", "input": ["StatefulPartitionedCall/bert_classifier/bert_backbone/transformer_layer_0/feedforward_intermediate_dense/BiasAdd", "StatefulPartitionedCall/bert_classifier/bert_backbone/transformer_layer_0/feedforward_intermediate_dense/Gelu/mul_1"], "attr": {"T": {"type": "DT_FLOAT"}}}, {"name": "StatefulPartitionedCall/bert_classifier/bert_backbone/transformer_layer_0/feedforward_intermediate_dense/Gelu/mul_2", "op": "Mul", "input": ["StatefulPartitionedCall/bert_classifier/bert_backbone/transformer_layer_0/feedforward_intermediate_dense/Gelu/mul_2/x", "StatefulPartitionedCall/bert_classifier/bert_backbone/transformer_layer_0/feedforward_intermediate_dense/Gelu/add"], "attr": {"T": {"type": "DT_FLOAT"}}}, {"name": "StatefulPartitionedCall/bert_classifier/bert_backbone/transformer_layer_0/feedforward_intermediate_dense/Gelu/Tanh", "op": "Tanh", "input": ["StatefulPartitionedCall/bert_classifier/bert_backbone/transformer_layer_0/feedforward_intermediate_dense/Gelu/mul_2"], "attr": {"T": {"type": "DT_FLOAT"}}}, {"name": "StatefulPartitionedCall/bert_classifier/bert_backbone/transformer_layer_0/feedforward_intermediate_dense/Gelu/add_1", "op": "AddV2", "input": ["StatefulPartitionedCall/bert_classifier/bert_backbone/transformer_layer_0/feedforward_intermediate_dense/Gelu/add_1/x", "StatefulPartitionedCall/bert_classifier/bert_backbone/transformer_layer_0/feedforward_intermediate_dense/Gelu/Tanh"], "attr": {"T": {"type": "DT_FLOAT"}}}, {"name": "StatefulPartitionedCall/bert_classifier/bert_backbone/transformer_layer_0/feedforward_intermediate_dense/Gelu/mul_3", "op": "Mul", "input": ["StatefulPartitionedCall/bert_classifier/bert_backbone/transformer_layer_0/feedforward_intermediate_dense/Gelu/mul", "StatefulPartitionedCall/bert_classifier/bert_backbone/transformer_layer_0/feedforward_intermediate_dense/Gelu/add_1"], "attr": {"T": {"type": "DT_FLOAT"}, "_grappler_ArithmeticOptimizer_MinimizeBroadcasts": {"b": true}}}, {"name": "StatefulPartitionedCall/bert_classifier/bert_backbone/transformer_layer_0/feedforward_output_dense/Tensordot/Shape", "op": "Shape", "input": ["StatefulPartitionedCall/bert_classifier/bert_backbone/transformer_layer_0/feedforward_intermediate_dense/Gelu/mul_3"], "attr": {"out_type": {"type": "DT_INT32"}, "T": {"type": "DT_FLOAT"}}, "experimentalType": {"typeId": "TFT_PRODUCT", "args": [{"typeId": "TFT_SHAPE_TENSOR", "args": [{"typeId": "TFT_INT32"}]}]}}, {"name": "StatefulPartitionedCall/bert_classifier/bert_backbone/transformer_layer_0/feedforward_output_dense/Tensordot/GatherV2_1", "op": "GatherV2", "input": ["StatefulPartitionedCall/bert_classifier/bert_backbone/transformer_layer_0/feedforward_output_dense/Tensordot/Shape", "StatefulPartitionedCall/bert_classifier/bert_backbone/transformer_layer_0/feedforward_output_dense/Tensordot/axes", "StatefulPartitionedCall/bert_classifier/bert_backbone/transformer_layer_0/feedforward_output_dense/Tensordot/GatherV2_1/axis"], "attr": {"Tparams": {"type": "DT_INT32"}, "batch_dims": {"i": "0"}, "Tindices": {"type": "DT_INT32"}, "Taxis": {"type": "DT_INT32"}}}, {"name": "StatefulPartitionedCall/bert_classifier/bert_backbone/transformer_layer_0/feedforward_output_dense/Tensordot/GatherV2", "op": "GatherV2", "input": ["StatefulPartitionedCall/bert_classifier/bert_backbone/transformer_layer_0/feedforward_output_dense/Tensordot/Shape", "StatefulPartitionedCall/bert_classifier/bert_backbone/transformer_layer_0/feedforward_output_dense/Tensordot/free", "StatefulPartitionedCall/bert_classifier/bert_backbone/transformer_layer_0/feedforward_output_dense/Tensordot/GatherV2/axis"], "attr": {"batch_dims": {"i": "0"}, "Taxis": {"type": "DT_INT32"}, "Tindices": {"type": "DT_INT32"}, "Tparams": {"type": "DT_INT32"}}}, {"name": "StatefulPartitionedCall/bert_classifier/bert_backbone/transformer_layer_0/feedforward_output_dense/Tensordot/Prod_1", "op": "Prod", "input": ["StatefulPartitionedCall/bert_classifier/bert_backbone/transformer_layer_0/feedforward_output_dense/Tensordot/GatherV2_1", "StatefulPartitionedCall/bert_classifier/bert_backbone/transformer_layer_0/feedforward_output_dense/Tensordot/Const_1"], "attr": {"Tidx": {"type": "DT_INT32"}, "T": {"type": "DT_INT32"}, "keep_dims": {"b": false}}}, {"name": "StatefulPartitionedCall/bert_classifier/bert_backbone/transformer_layer_0/feedforward_output_dense/Tensordot/Prod", "op": "Prod", "input": ["StatefulPartitionedCall/bert_classifier/bert_backbone/transformer_layer_0/feedforward_output_dense/Tensordot/GatherV2", "StatefulPartitionedCall/bert_classifier/bert_backbone/transformer_layer_0/feedforward_output_dense/Tensordot/Const"], "attr": {"keep_dims": {"b": false}, "T": {"type": "DT_INT32"}, "Tidx": {"type": "DT_INT32"}}}, {"name": "StatefulPartitionedCall/bert_classifier/bert_backbone/transformer_layer_0/feedforward_output_dense/Tensordot/concat_1", "op": "ConcatV2", "input": ["StatefulPartitionedCall/bert_classifier/bert_backbone/transformer_layer_0/feedforward_output_dense/Tensordot/GatherV2", "StatefulPartitionedCall/bert_classifier/bert_backbone/transformer_layer_0/feedforward_output_dense/Tensordot/Const_2", "StatefulPartitionedCall/bert_classifier/bert_backbone/transformer_layer_0/feedforward_output_dense/Tensordot/concat_1/axis"], "attr": {"Tidx": {"type": "DT_INT32"}, "N": {"i": "2"}, "T": {"type": "DT_INT32"}}}, {"name": "StatefulPartitionedCall/bert_classifier/bert_backbone/transformer_layer_0/feedforward_output_dense/Tensordot/stack", "op": "Pack", "input": ["StatefulPartitionedCall/bert_classifier/bert_backbone/transformer_layer_0/feedforward_output_dense/Tensordot/Prod", "StatefulPartitionedCall/bert_classifier/bert_backbone/transformer_layer_0/feedforward_output_dense/Tensordot/Prod_1"], "attr": {"T": {"type": "DT_INT32"}, "axis": {"i": "0"}, "N": {"i": "2"}}}, {"name": "StatefulPartitionedCall/bert_classifier/bert_backbone/transformer_layer_0/feedforward_output_dense/Tensordot/Reshape", "op": "Reshape", "input": ["StatefulPartitionedCall/bert_classifier/bert_backbone/transformer_layer_0/feedforward_intermediate_dense/Gelu/mul_3", "StatefulPartitionedCall/bert_classifier/bert_backbone/transformer_layer_0/feedforward_output_dense/Tensordot/stack"], "attr": {"Tshape": {"type": "DT_INT32"}, "T": {"type": "DT_FLOAT"}}}, {"name": "StatefulPartitionedCall/bert_classifier/bert_backbone/transformer_layer_0/feedforward_output_dense/Tensordot/MatMul", "op": "MatMul", "input": ["StatefulPartitionedCall/bert_classifier/bert_backbone/transformer_layer_0/feedforward_output_dense/Tensordot/Reshape", "StatefulPartitionedCall/bert_classifier/bert_backbone/transformer_layer_0/feedforward_output_dense/Tensordot/ReadVariableOp"], "device": "/device:CPU:0", "attr": {"transpose_b": {"b": false}, "T": {"type": "DT_FLOAT"}, "transpose_a": {"b": false}}}, {"name": "StatefulPartitionedCall/bert_classifier/bert_backbone/transformer_layer_0/feedforward_output_dense/Tensordot", "op": "Reshape", "input": ["StatefulPartitionedCall/bert_classifier/bert_backbone/transformer_layer_0/feedforward_output_dense/Tensordot/MatMul", "StatefulPartitionedCall/bert_classifier/bert_backbone/transformer_layer_0/feedforward_output_dense/Tensordot/concat_1"], "attr": {"Tshape": {"type": "DT_INT32"}, "T": {"type": "DT_FLOAT"}}}, {"name": "StatefulPartitionedCall/bert_classifier/bert_backbone/transformer_layer_0/feedforward_output_dense/BiasAdd", "op": "BiasAdd", "input": ["StatefulPartitionedCall/bert_classifier/bert_backbone/transformer_layer_0/feedforward_output_dense/Tensordot", "StatefulPartitionedCall/bert_classifier/bert_backbone/transformer_layer_0/feedforward_output_dense/BiasAdd/ReadVariableOp"], "attr": {"T": {"type": "DT_FLOAT"}, "data_format": {"s": "TkhXQw=="}}}, {"name": "StatefulPartitionedCall/bert_classifier/bert_backbone/transformer_layer_0/add_1", "op": "AddV2", "input": ["StatefulPartitionedCall/bert_classifier/bert_backbone/transformer_layer_0/feedforward_output_dense/BiasAdd", "StatefulPartitionedCall/bert_classifier/bert_backbone/transformer_layer_0/self_attention_layer_norm/batchnorm/add_1"], "attr": {"T": {"type": "DT_FLOAT"}}}, {"name": "StatefulPartitionedCall/bert_classifier/bert_backbone/transformer_layer_0/feedforward_layer_norm/moments/mean", "op": "Mean", "input": ["StatefulPartitionedCall/bert_classifier/bert_backbone/transformer_layer_0/add_1", "StatefulPartitionedCall/bert_classifier/bert_backbone/transformer_layer_0/feedforward_layer_norm/moments/mean/reduction_indices"], "attr": {"Tidx": {"type": "DT_INT32"}, "keep_dims": {"b": true}, "T": {"type": "DT_FLOAT"}}}, {"name": "StatefulPartitionedCall/bert_classifier/bert_backbone/transformer_layer_0/feedforward_layer_norm/moments/SquaredDifference", "op": "SquaredDifference", "input": ["StatefulPartitionedCall/bert_classifier/bert_backbone/transformer_layer_0/add_1", "StatefulPartitionedCall/bert_classifier/bert_backbone/transformer_layer_0/feedforward_layer_norm/moments/mean"], "attr": {"T": {"type": "DT_FLOAT"}}}, {"name": "StatefulPartitionedCall/bert_classifier/bert_backbone/transformer_layer_0/feedforward_layer_norm/moments/variance", "op": "Mean", "input": ["StatefulPartitionedCall/bert_classifier/bert_backbone/transformer_layer_0/feedforward_layer_norm/moments/SquaredDifference", "StatefulPartitionedCall/bert_classifier/bert_backbone/transformer_layer_0/feedforward_layer_norm/moments/variance/reduction_indices"], "attr": {"Tidx": {"type": "DT_INT32"}, "keep_dims": {"b": true}, "T": {"type": "DT_FLOAT"}}}, {"name": "StatefulPartitionedCall/bert_classifier/bert_backbone/transformer_layer_0/feedforward_layer_norm/batchnorm/add", "op": "AddV2", "input": ["StatefulPartitionedCall/bert_classifier/bert_backbone/transformer_layer_0/feedforward_layer_norm/moments/variance", "StatefulPartitionedCall/bert_classifier/bert_backbone/transformer_layer_0/feedforward_layer_norm/batchnorm/add/y"], "attr": {"T": {"type": "DT_FLOAT"}}}, {"name": "StatefulPartitionedCall/bert_classifier/bert_backbone/transformer_layer_0/feedforward_layer_norm/batchnorm/Rsqrt", "op": "Rsqrt", "input": ["StatefulPartitionedCall/bert_classifier/bert_backbone/transformer_layer_0/feedforward_layer_norm/batchnorm/add"], "attr": {"T": {"type": "DT_FLOAT"}}}, {"name": "StatefulPartitionedCall/bert_classifier/bert_backbone/transformer_layer_0/feedforward_layer_norm/batchnorm/mul", "op": "Mul", "input": ["StatefulPartitionedCall/bert_classifier/bert_backbone/transformer_layer_0/feedforward_layer_norm/batchnorm/Rsqrt", "StatefulPartitionedCall/bert_classifier/bert_backbone/transformer_layer_0/feedforward_layer_norm/batchnorm/mul/ReadVariableOp"], "attr": {"T": {"type": "DT_FLOAT"}}}, {"name": "StatefulPartitionedCall/bert_classifier/bert_backbone/transformer_layer_0/feedforward_layer_norm/batchnorm/mul_2", "op": "Mul", "input": ["StatefulPartitionedCall/bert_classifier/bert_backbone/transformer_layer_0/feedforward_layer_norm/moments/mean", "StatefulPartitionedCall/bert_classifier/bert_backbone/transformer_layer_0/feedforward_layer_norm/batchnorm/mul"], "attr": {"T": {"type": "DT_FLOAT"}}}, {"name": "StatefulPartitionedCall/bert_classifier/bert_backbone/transformer_layer_0/feedforward_layer_norm/batchnorm/mul_1", "op": "Mul", "input": ["StatefulPartitionedCall/bert_classifier/bert_backbone/transformer_layer_0/add_1", "StatefulPartitionedCall/bert_classifier/bert_backbone/transformer_layer_0/feedforward_layer_norm/batchnorm/mul"], "attr": {"T": {"type": "DT_FLOAT"}}}, {"name": "StatefulPartitionedCall/bert_classifier/bert_backbone/transformer_layer_0/feedforward_layer_norm/batchnorm/sub", "op": "Sub", "input": ["StatefulPartitionedCall/bert_classifier/bert_backbone/transformer_layer_0/feedforward_layer_norm/batchnorm/ReadVariableOp", "StatefulPartitionedCall/bert_classifier/bert_backbone/transformer_layer_0/feedforward_layer_norm/batchnorm/mul_2"], "attr": {"T": {"type": "DT_FLOAT"}}}, {"name": "StatefulPartitionedCall/bert_classifier/bert_backbone/transformer_layer_0/feedforward_layer_norm/batchnorm/add_1", "op": "AddV2", "input": ["StatefulPartitionedCall/bert_classifier/bert_backbone/transformer_layer_0/feedforward_layer_norm/batchnorm/mul_1", "StatefulPartitionedCall/bert_classifier/bert_backbone/transformer_layer_0/feedforward_layer_norm/batchnorm/sub"], "attr": {"T": {"type": "DT_FLOAT"}}}, {"name": "StatefulPartitionedCall/bert_classifier/bert_backbone/transformer_layer_1/self_attention_layer/key/einsum/Einsum", "op": "Einsum", "input": ["StatefulPartitionedCall/bert_classifier/bert_backbone/transformer_layer_0/feedforward_layer_norm/batchnorm/add_1", "StatefulPartitionedCall/bert_classifier/bert_backbone/transformer_layer_1/self_attention_layer/key/einsum/Einsum/ReadVariableOp"], "attr": {"N": {"i": "2"}, "equation": {"s": "YWJjLGNkZS0+YWJkZQ=="}, "T": {"type": "DT_FLOAT"}}}, {"name": "StatefulPartitionedCall/bert_classifier/bert_backbone/transformer_layer_1/self_attention_layer/query/einsum/Einsum", "op": "Einsum", "input": ["StatefulPartitionedCall/bert_classifier/bert_backbone/transformer_layer_0/feedforward_layer_norm/batchnorm/add_1", "StatefulPartitionedCall/bert_classifier/bert_backbone/transformer_layer_1/self_attention_layer/query/einsum/Einsum/ReadVariableOp"], "attr": {"T": {"type": "DT_FLOAT"}, "N": {"i": "2"}, "equation": {"s": "YWJjLGNkZS0+YWJkZQ=="}}}, {"name": "StatefulPartitionedCall/bert_classifier/bert_backbone/transformer_layer_1/self_attention_layer/value/einsum/Einsum", "op": "Einsum", "input": ["StatefulPartitionedCall/bert_classifier/bert_backbone/transformer_layer_0/feedforward_layer_norm/batchnorm/add_1", "StatefulPartitionedCall/bert_classifier/bert_backbone/transformer_layer_1/self_attention_layer/value/einsum/Einsum/ReadVariableOp"], "attr": {"N": {"i": "2"}, "equation": {"s": "YWJjLGNkZS0+YWJkZQ=="}, "T": {"type": "DT_FLOAT"}}}, {"name": "StatefulPartitionedCall/bert_classifier/bert_backbone/transformer_layer_1/self_attention_layer/key/add", "op": "AddV2", "input": ["StatefulPartitionedCall/bert_classifier/bert_backbone/transformer_layer_1/self_attention_layer/key/einsum/Einsum", "StatefulPartitionedCall/bert_classifier/bert_backbone/transformer_layer_1/self_attention_layer/key/add/ReadVariableOp"], "attr": {"T": {"type": "DT_FLOAT"}}}, {"name": "StatefulPartitionedCall/bert_classifier/bert_backbone/transformer_layer_1/self_attention_layer/query/add", "op": "AddV2", "input": ["StatefulPartitionedCall/bert_classifier/bert_backbone/transformer_layer_1/self_attention_layer/query/einsum/Einsum", "StatefulPartitionedCall/bert_classifier/bert_backbone/transformer_layer_1/self_attention_layer/query/add/ReadVariableOp"], "attr": {"T": {"type": "DT_FLOAT"}}}, {"name": "StatefulPartitionedCall/bert_classifier/bert_backbone/transformer_layer_1/self_attention_layer/value/add", "op": "AddV2", "input": ["StatefulPartitionedCall/bert_classifier/bert_backbone/transformer_layer_1/self_attention_layer/value/einsum/Einsum", "StatefulPartitionedCall/bert_classifier/bert_backbone/transformer_layer_1/self_attention_layer/value/add/ReadVariableOp"], "attr": {"T": {"type": "DT_FLOAT"}}}, {"name": "StatefulPartitionedCall/bert_classifier/bert_backbone/transformer_layer_1/self_attention_layer/Mul", "op": "Mul", "input": ["StatefulPartitionedCall/bert_classifier/bert_backbone/transformer_layer_1/self_attention_layer/query/add", "StatefulPartitionedCall/bert_classifier/bert_backbone/transformer_layer_1/self_attention_layer/Mul/y"], "attr": {"T": {"type": "DT_FLOAT"}}}, {"name": "StatefulPartitionedCall/bert_classifier/bert_backbone/transformer_layer_1/self_attention_layer/einsum/Einsum", "op": "Einsum", "input": ["StatefulPartitionedCall/bert_classifier/bert_backbone/transformer_layer_1/self_attention_layer/key/add", "StatefulPartitionedCall/bert_classifier/bert_backbone/transformer_layer_1/self_attention_layer/Mul"], "attr": {"T": {"type": "DT_FLOAT"}, "equation": {"s": "YWVjZCxhYmNkLT5hY2Jl"}, "N": {"i": "2"}}}, {"name": "StatefulPartitionedCall/bert_classifier/bert_backbone/transformer_layer_1/self_attention_layer/softmax/add", "op": "AddV2", "input": ["StatefulPartitionedCall/bert_classifier/bert_backbone/transformer_layer_1/self_attention_layer/einsum/Einsum", "StatefulPartitionedCall/bert_classifier/bert_backbone/transformer_layer_1/self_attention_layer/softmax/mul"], "attr": {"T": {"type": "DT_FLOAT"}}}, {"name": "StatefulPartitionedCall/bert_classifier/bert_backbone/transformer_layer_1/self_attention_layer/softmax/Softmax", "op": "Softmax", "input": ["StatefulPartitionedCall/bert_classifier/bert_backbone/transformer_layer_1/self_attention_layer/softmax/add"], "attr": {"T": {"type": "DT_FLOAT"}}}, {"name": "StatefulPartitionedCall/bert_classifier/bert_backbone/transformer_layer_1/self_attention_layer/einsum_1/Einsum", "op": "Einsum", "input": ["StatefulPartitionedCall/bert_classifier/bert_backbone/transformer_layer_1/self_attention_layer/softmax/Softmax", "StatefulPartitionedCall/bert_classifier/bert_backbone/transformer_layer_1/self_attention_layer/value/add"], "attr": {"equation": {"s": "YWNiZSxhZWNkLT5hYmNk"}, "N": {"i": "2"}, "T": {"type": "DT_FLOAT"}}}, {"name": "StatefulPartitionedCall/bert_classifier/bert_backbone/transformer_layer_1/self_attention_layer/attention_output/einsum/Einsum", "op": "Einsum", "input": ["StatefulPartitionedCall/bert_classifier/bert_backbone/transformer_layer_1/self_attention_layer/einsum_1/Einsum", "StatefulPartitionedCall/bert_classifier/bert_backbone/transformer_layer_1/self_attention_layer/attention_output/einsum/Einsum/ReadVariableOp"], "attr": {"equation": {"s": "YWJjZCxjZGUtPmFiZQ=="}, "T": {"type": "DT_FLOAT"}, "N": {"i": "2"}}}, {"name": "StatefulPartitionedCall/bert_classifier/bert_backbone/transformer_layer_1/self_attention_layer/attention_output/add", "op": "AddV2", "input": ["StatefulPartitionedCall/bert_classifier/bert_backbone/transformer_layer_1/self_attention_layer/attention_output/einsum/Einsum", "StatefulPartitionedCall/bert_classifier/bert_backbone/transformer_layer_1/self_attention_layer/attention_output/add/ReadVariableOp"], "attr": {"T": {"type": "DT_FLOAT"}}}, {"name": "StatefulPartitionedCall/bert_classifier/bert_backbone/transformer_layer_1/add", "op": "AddV2", "input": ["StatefulPartitionedCall/bert_classifier/bert_backbone/transformer_layer_1/self_attention_layer/attention_output/add", "StatefulPartitionedCall/bert_classifier/bert_backbone/transformer_layer_0/feedforward_layer_norm/batchnorm/add_1"], "attr": {"T": {"type": "DT_FLOAT"}}}, {"name": "StatefulPartitionedCall/bert_classifier/bert_backbone/transformer_layer_1/self_attention_layer_norm/moments/mean", "op": "Mean", "input": ["StatefulPartitionedCall/bert_classifier/bert_backbone/transformer_layer_1/add", "StatefulPartitionedCall/bert_classifier/bert_backbone/transformer_layer_1/self_attention_layer_norm/moments/mean/reduction_indices"], "attr": {"Tidx": {"type": "DT_INT32"}, "keep_dims": {"b": true}, "T": {"type": "DT_FLOAT"}}}, {"name": "StatefulPartitionedCall/bert_classifier/bert_backbone/transformer_layer_1/self_attention_layer_norm/moments/SquaredDifference", "op": "SquaredDifference", "input": ["StatefulPartitionedCall/bert_classifier/bert_backbone/transformer_layer_1/add", "StatefulPartitionedCall/bert_classifier/bert_backbone/transformer_layer_1/self_attention_layer_norm/moments/mean"], "attr": {"T": {"type": "DT_FLOAT"}}}, {"name": "StatefulPartitionedCall/bert_classifier/bert_backbone/transformer_layer_1/self_attention_layer_norm/moments/variance", "op": "Mean", "input": ["StatefulPartitionedCall/bert_classifier/bert_backbone/transformer_layer_1/self_attention_layer_norm/moments/SquaredDifference", "StatefulPartitionedCall/bert_classifier/bert_backbone/transformer_layer_1/self_attention_layer_norm/moments/variance/reduction_indices"], "attr": {"T": {"type": "DT_FLOAT"}, "Tidx": {"type": "DT_INT32"}, "keep_dims": {"b": true}}}, {"name": "StatefulPartitionedCall/bert_classifier/bert_backbone/transformer_layer_1/self_attention_layer_norm/batchnorm/add", "op": "AddV2", "input": ["StatefulPartitionedCall/bert_classifier/bert_backbone/transformer_layer_1/self_attention_layer_norm/moments/variance", "StatefulPartitionedCall/bert_classifier/bert_backbone/transformer_layer_1/self_attention_layer_norm/batchnorm/add/y"], "attr": {"T": {"type": "DT_FLOAT"}}}, {"name": "StatefulPartitionedCall/bert_classifier/bert_backbone/transformer_layer_1/self_attention_layer_norm/batchnorm/Rsqrt", "op": "Rsqrt", "input": ["StatefulPartitionedCall/bert_classifier/bert_backbone/transformer_layer_1/self_attention_layer_norm/batchnorm/add"], "attr": {"T": {"type": "DT_FLOAT"}}}, {"name": "StatefulPartitionedCall/bert_classifier/bert_backbone/transformer_layer_1/self_attention_layer_norm/batchnorm/mul", "op": "Mul", "input": ["StatefulPartitionedCall/bert_classifier/bert_backbone/transformer_layer_1/self_attention_layer_norm/batchnorm/Rsqrt", "StatefulPartitionedCall/bert_classifier/bert_backbone/transformer_layer_1/self_attention_layer_norm/batchnorm/mul/ReadVariableOp"], "attr": {"T": {"type": "DT_FLOAT"}}}, {"name": "StatefulPartitionedCall/bert_classifier/bert_backbone/transformer_layer_1/self_attention_layer_norm/batchnorm/mul_2", "op": "Mul", "input": ["StatefulPartitionedCall/bert_classifier/bert_backbone/transformer_layer_1/self_attention_layer_norm/moments/mean", "StatefulPartitionedCall/bert_classifier/bert_backbone/transformer_layer_1/self_attention_layer_norm/batchnorm/mul"], "attr": {"T": {"type": "DT_FLOAT"}}}, {"name": "StatefulPartitionedCall/bert_classifier/bert_backbone/transformer_layer_1/self_attention_layer_norm/batchnorm/mul_1", "op": "Mul", "input": ["StatefulPartitionedCall/bert_classifier/bert_backbone/transformer_layer_1/add", "StatefulPartitionedCall/bert_classifier/bert_backbone/transformer_layer_1/self_attention_layer_norm/batchnorm/mul"], "attr": {"T": {"type": "DT_FLOAT"}}}, {"name": "StatefulPartitionedCall/bert_classifier/bert_backbone/transformer_layer_1/self_attention_layer_norm/batchnorm/sub", "op": "Sub", "input": ["StatefulPartitionedCall/bert_classifier/bert_backbone/transformer_layer_1/self_attention_layer_norm/batchnorm/ReadVariableOp", "StatefulPartitionedCall/bert_classifier/bert_backbone/transformer_layer_1/self_attention_layer_norm/batchnorm/mul_2"], "attr": {"T": {"type": "DT_FLOAT"}}}, {"name": "StatefulPartitionedCall/bert_classifier/bert_backbone/transformer_layer_1/self_attention_layer_norm/batchnorm/add_1", "op": "AddV2", "input": ["StatefulPartitionedCall/bert_classifier/bert_backbone/transformer_layer_1/self_attention_layer_norm/batchnorm/mul_1", "StatefulPartitionedCall/bert_classifier/bert_backbone/transformer_layer_1/self_attention_layer_norm/batchnorm/sub"], "attr": {"T": {"type": "DT_FLOAT"}}}, {"name": "StatefulPartitionedCall/bert_classifier/bert_backbone/transformer_layer_1/feedforward_intermediate_dense/Tensordot/Shape", "op": "Shape", "input": ["StatefulPartitionedCall/bert_classifier/bert_backbone/transformer_layer_1/self_attention_layer_norm/batchnorm/add_1"], "attr": {"T": {"type": "DT_FLOAT"}, "out_type": {"type": "DT_INT32"}}, "experimentalType": {"typeId": "TFT_PRODUCT", "args": [{"typeId": "TFT_SHAPE_TENSOR", "args": [{"typeId": "TFT_INT32"}]}]}}, {"name": "StatefulPartitionedCall/bert_classifier/bert_backbone/transformer_layer_1/feedforward_intermediate_dense/Tensordot/GatherV2_1", "op": "GatherV2", "input": ["StatefulPartitionedCall/bert_classifier/bert_backbone/transformer_layer_1/feedforward_intermediate_dense/Tensordot/Shape", "StatefulPartitionedCall/bert_classifier/bert_backbone/transformer_layer_1/feedforward_intermediate_dense/Tensordot/axes", "StatefulPartitionedCall/bert_classifier/bert_backbone/transformer_layer_1/feedforward_intermediate_dense/Tensordot/GatherV2_1/axis"], "attr": {"Tindices": {"type": "DT_INT32"}, "batch_dims": {"i": "0"}, "Taxis": {"type": "DT_INT32"}, "Tparams": {"type": "DT_INT32"}}}, {"name": "StatefulPartitionedCall/bert_classifier/bert_backbone/transformer_layer_1/feedforward_intermediate_dense/Tensordot/GatherV2", "op": "GatherV2", "input": ["StatefulPartitionedCall/bert_classifier/bert_backbone/transformer_layer_1/feedforward_intermediate_dense/Tensordot/Shape", "StatefulPartitionedCall/bert_classifier/bert_backbone/transformer_layer_1/feedforward_intermediate_dense/Tensordot/free", "StatefulPartitionedCall/bert_classifier/bert_backbone/transformer_layer_1/feedforward_intermediate_dense/Tensordot/GatherV2/axis"], "attr": {"Tparams": {"type": "DT_INT32"}, "batch_dims": {"i": "0"}, "Tindices": {"type": "DT_INT32"}, "Taxis": {"type": "DT_INT32"}}}, {"name": "StatefulPartitionedCall/bert_classifier/bert_backbone/transformer_layer_1/feedforward_intermediate_dense/Tensordot/Prod_1", "op": "Prod", "input": ["StatefulPartitionedCall/bert_classifier/bert_backbone/transformer_layer_1/feedforward_intermediate_dense/Tensordot/GatherV2_1", "StatefulPartitionedCall/bert_classifier/bert_backbone/transformer_layer_1/feedforward_intermediate_dense/Tensordot/Const_1"], "attr": {"Tidx": {"type": "DT_INT32"}, "T": {"type": "DT_INT32"}, "keep_dims": {"b": false}}}, {"name": "StatefulPartitionedCall/bert_classifier/bert_backbone/transformer_layer_1/feedforward_intermediate_dense/Tensordot/Prod", "op": "Prod", "input": ["StatefulPartitionedCall/bert_classifier/bert_backbone/transformer_layer_1/feedforward_intermediate_dense/Tensordot/GatherV2", "StatefulPartitionedCall/bert_classifier/bert_backbone/transformer_layer_1/feedforward_intermediate_dense/Tensordot/Const"], "attr": {"Tidx": {"type": "DT_INT32"}, "keep_dims": {"b": false}, "T": {"type": "DT_INT32"}}}, {"name": "StatefulPartitionedCall/bert_classifier/bert_backbone/transformer_layer_1/feedforward_intermediate_dense/Tensordot/concat_1", "op": "ConcatV2", "input": ["StatefulPartitionedCall/bert_classifier/bert_backbone/transformer_layer_1/feedforward_intermediate_dense/Tensordot/GatherV2", "StatefulPartitionedCall/bert_classifier/bert_backbone/transformer_layer_1/feedforward_intermediate_dense/Tensordot/Const_2", "StatefulPartitionedCall/bert_classifier/bert_backbone/transformer_layer_1/feedforward_intermediate_dense/Tensordot/concat_1/axis"], "attr": {"T": {"type": "DT_INT32"}, "N": {"i": "2"}, "Tidx": {"type": "DT_INT32"}}}, {"name": "StatefulPartitionedCall/bert_classifier/bert_backbone/transformer_layer_1/feedforward_intermediate_dense/Tensordot/stack", "op": "Pack", "input": ["StatefulPartitionedCall/bert_classifier/bert_backbone/transformer_layer_1/feedforward_intermediate_dense/Tensordot/Prod", "StatefulPartitionedCall/bert_classifier/bert_backbone/transformer_layer_1/feedforward_intermediate_dense/Tensordot/Prod_1"], "attr": {"T": {"type": "DT_INT32"}, "axis": {"i": "0"}, "N": {"i": "2"}}}, {"name": "StatefulPartitionedCall/bert_classifier/bert_backbone/transformer_layer_1/feedforward_intermediate_dense/Tensordot/Reshape", "op": "Reshape", "input": ["StatefulPartitionedCall/bert_classifier/bert_backbone/transformer_layer_1/self_attention_layer_norm/batchnorm/add_1", "StatefulPartitionedCall/bert_classifier/bert_backbone/transformer_layer_1/feedforward_intermediate_dense/Tensordot/stack"], "attr": {"Tshape": {"type": "DT_INT32"}, "T": {"type": "DT_FLOAT"}}}, {"name": "StatefulPartitionedCall/bert_classifier/bert_backbone/transformer_layer_1/feedforward_intermediate_dense/Tensordot/MatMul", "op": "MatMul", "input": ["StatefulPartitionedCall/bert_classifier/bert_backbone/transformer_layer_1/feedforward_intermediate_dense/Tensordot/Reshape", "StatefulPartitionedCall/bert_classifier/bert_backbone/transformer_layer_1/feedforward_intermediate_dense/Tensordot/ReadVariableOp"], "device": "/device:CPU:0", "attr": {"T": {"type": "DT_FLOAT"}, "transpose_b": {"b": false}, "transpose_a": {"b": false}}}, {"name": "StatefulPartitionedCall/bert_classifier/bert_backbone/transformer_layer_1/feedforward_intermediate_dense/Tensordot", "op": "Reshape", "input": ["StatefulPartitionedCall/bert_classifier/bert_backbone/transformer_layer_1/feedforward_intermediate_dense/Tensordot/MatMul", "StatefulPartitionedCall/bert_classifier/bert_backbone/transformer_layer_1/feedforward_intermediate_dense/Tensordot/concat_1"], "attr": {"Tshape": {"type": "DT_INT32"}, "T": {"type": "DT_FLOAT"}}}, {"name": "StatefulPartitionedCall/bert_classifier/bert_backbone/transformer_layer_1/feedforward_intermediate_dense/BiasAdd", "op": "BiasAdd", "input": ["StatefulPartitionedCall/bert_classifier/bert_backbone/transformer_layer_1/feedforward_intermediate_dense/Tensordot", "StatefulPartitionedCall/bert_classifier/bert_backbone/transformer_layer_1/feedforward_intermediate_dense/BiasAdd/ReadVariableOp"], "attr": {"T": {"type": "DT_FLOAT"}, "data_format": {"s": "TkhXQw=="}}}, {"name": "StatefulPartitionedCall/bert_classifier/bert_backbone/transformer_layer_1/feedforward_intermediate_dense/Gelu/mul", "op": "Mul", "input": ["StatefulPartitionedCall/bert_classifier/bert_backbone/transformer_layer_1/feedforward_intermediate_dense/Gelu/mul/x", "StatefulPartitionedCall/bert_classifier/bert_backbone/transformer_layer_1/feedforward_intermediate_dense/BiasAdd"], "attr": {"_grappler_ArithmeticOptimizer_MinimizeBroadcasts": {"b": true}, "T": {"type": "DT_FLOAT"}}}, {"name": "StatefulPartitionedCall/bert_classifier/bert_backbone/transformer_layer_1/feedforward_intermediate_dense/Gelu/Pow", "op": "Pow", "input": ["StatefulPartitionedCall/bert_classifier/bert_backbone/transformer_layer_1/feedforward_intermediate_dense/BiasAdd", "StatefulPartitionedCall/bert_classifier/bert_backbone/transformer_layer_1/feedforward_intermediate_dense/Gelu/Pow/y"], "attr": {"T": {"type": "DT_FLOAT"}}}, {"name": "StatefulPartitionedCall/bert_classifier/bert_backbone/transformer_layer_1/feedforward_intermediate_dense/Gelu/mul_1", "op": "Mul", "input": ["StatefulPartitionedCall/bert_classifier/bert_backbone/transformer_layer_1/feedforward_intermediate_dense/Gelu/Cast/x", "StatefulPartitionedCall/bert_classifier/bert_backbone/transformer_layer_1/feedforward_intermediate_dense/Gelu/Pow"], "attr": {"T": {"type": "DT_FLOAT"}}}, {"name": "StatefulPartitionedCall/bert_classifier/bert_backbone/transformer_layer_1/feedforward_intermediate_dense/Gelu/add", "op": "AddV2", "input": ["StatefulPartitionedCall/bert_classifier/bert_backbone/transformer_layer_1/feedforward_intermediate_dense/BiasAdd", "StatefulPartitionedCall/bert_classifier/bert_backbone/transformer_layer_1/feedforward_intermediate_dense/Gelu/mul_1"], "attr": {"T": {"type": "DT_FLOAT"}}}, {"name": "StatefulPartitionedCall/bert_classifier/bert_backbone/transformer_layer_1/feedforward_intermediate_dense/Gelu/mul_2", "op": "Mul", "input": ["StatefulPartitionedCall/bert_classifier/bert_backbone/transformer_layer_1/feedforward_intermediate_dense/Gelu/mul_2/x", "StatefulPartitionedCall/bert_classifier/bert_backbone/transformer_layer_1/feedforward_intermediate_dense/Gelu/add"], "attr": {"T": {"type": "DT_FLOAT"}}}, {"name": "StatefulPartitionedCall/bert_classifier/bert_backbone/transformer_layer_1/feedforward_intermediate_dense/Gelu/Tanh", "op": "Tanh", "input": ["StatefulPartitionedCall/bert_classifier/bert_backbone/transformer_layer_1/feedforward_intermediate_dense/Gelu/mul_2"], "attr": {"T": {"type": "DT_FLOAT"}}}, {"name": "StatefulPartitionedCall/bert_classifier/bert_backbone/transformer_layer_1/feedforward_intermediate_dense/Gelu/add_1", "op": "AddV2", "input": ["StatefulPartitionedCall/bert_classifier/bert_backbone/transformer_layer_1/feedforward_intermediate_dense/Gelu/add_1/x", "StatefulPartitionedCall/bert_classifier/bert_backbone/transformer_layer_1/feedforward_intermediate_dense/Gelu/Tanh"], "attr": {"T": {"type": "DT_FLOAT"}}}, {"name": "StatefulPartitionedCall/bert_classifier/bert_backbone/transformer_layer_1/feedforward_intermediate_dense/Gelu/mul_3", "op": "Mul", "input": ["StatefulPartitionedCall/bert_classifier/bert_backbone/transformer_layer_1/feedforward_intermediate_dense/Gelu/mul", "StatefulPartitionedCall/bert_classifier/bert_backbone/transformer_layer_1/feedforward_intermediate_dense/Gelu/add_1"], "attr": {"_grappler_ArithmeticOptimizer_MinimizeBroadcasts": {"b": true}, "T": {"type": "DT_FLOAT"}}}, {"name": "StatefulPartitionedCall/bert_classifier/bert_backbone/transformer_layer_1/feedforward_output_dense/Tensordot/Shape", "op": "Shape", "input": ["StatefulPartitionedCall/bert_classifier/bert_backbone/transformer_layer_1/feedforward_intermediate_dense/Gelu/mul_3"], "attr": {"out_type": {"type": "DT_INT32"}, "T": {"type": "DT_FLOAT"}}, "experimentalType": {"typeId": "TFT_PRODUCT", "args": [{"typeId": "TFT_SHAPE_TENSOR", "args": [{"typeId": "TFT_INT32"}]}]}}, {"name": "StatefulPartitionedCall/bert_classifier/bert_backbone/transformer_layer_1/feedforward_output_dense/Tensordot/GatherV2_1", "op": "GatherV2", "input": ["StatefulPartitionedCall/bert_classifier/bert_backbone/transformer_layer_1/feedforward_output_dense/Tensordot/Shape", "StatefulPartitionedCall/bert_classifier/bert_backbone/transformer_layer_1/feedforward_output_dense/Tensordot/axes", "StatefulPartitionedCall/bert_classifier/bert_backbone/transformer_layer_1/feedforward_output_dense/Tensordot/GatherV2_1/axis"], "attr": {"Taxis": {"type": "DT_INT32"}, "Tparams": {"type": "DT_INT32"}, "batch_dims": {"i": "0"}, "Tindices": {"type": "DT_INT32"}}}, {"name": "StatefulPartitionedCall/bert_classifier/bert_backbone/transformer_layer_1/feedforward_output_dense/Tensordot/GatherV2", "op": "GatherV2", "input": ["StatefulPartitionedCall/bert_classifier/bert_backbone/transformer_layer_1/feedforward_output_dense/Tensordot/Shape", "StatefulPartitionedCall/bert_classifier/bert_backbone/transformer_layer_1/feedforward_output_dense/Tensordot/free", "StatefulPartitionedCall/bert_classifier/bert_backbone/transformer_layer_1/feedforward_output_dense/Tensordot/GatherV2/axis"], "attr": {"Tindices": {"type": "DT_INT32"}, "Taxis": {"type": "DT_INT32"}, "Tparams": {"type": "DT_INT32"}, "batch_dims": {"i": "0"}}}, {"name": "StatefulPartitionedCall/bert_classifier/bert_backbone/transformer_layer_1/feedforward_output_dense/Tensordot/Prod_1", "op": "Prod", "input": ["StatefulPartitionedCall/bert_classifier/bert_backbone/transformer_layer_1/feedforward_output_dense/Tensordot/GatherV2_1", "StatefulPartitionedCall/bert_classifier/bert_backbone/transformer_layer_1/feedforward_output_dense/Tensordot/Const_1"], "attr": {"T": {"type": "DT_INT32"}, "Tidx": {"type": "DT_INT32"}, "keep_dims": {"b": false}}}, {"name": "StatefulPartitionedCall/bert_classifier/bert_backbone/transformer_layer_1/feedforward_output_dense/Tensordot/Prod", "op": "Prod", "input": ["StatefulPartitionedCall/bert_classifier/bert_backbone/transformer_layer_1/feedforward_output_dense/Tensordot/GatherV2", "StatefulPartitionedCall/bert_classifier/bert_backbone/transformer_layer_1/feedforward_output_dense/Tensordot/Const"], "attr": {"T": {"type": "DT_INT32"}, "Tidx": {"type": "DT_INT32"}, "keep_dims": {"b": false}}}, {"name": "StatefulPartitionedCall/bert_classifier/bert_backbone/transformer_layer_1/feedforward_output_dense/Tensordot/concat_1", "op": "ConcatV2", "input": ["StatefulPartitionedCall/bert_classifier/bert_backbone/transformer_layer_1/feedforward_output_dense/Tensordot/GatherV2", "StatefulPartitionedCall/bert_classifier/bert_backbone/transformer_layer_1/feedforward_output_dense/Tensordot/Const_2", "StatefulPartitionedCall/bert_classifier/bert_backbone/transformer_layer_1/feedforward_output_dense/Tensordot/concat_1/axis"], "attr": {"Tidx": {"type": "DT_INT32"}, "T": {"type": "DT_INT32"}, "N": {"i": "2"}}}, {"name": "StatefulPartitionedCall/bert_classifier/bert_backbone/transformer_layer_1/feedforward_output_dense/Tensordot/stack", "op": "Pack", "input": ["StatefulPartitionedCall/bert_classifier/bert_backbone/transformer_layer_1/feedforward_output_dense/Tensordot/Prod", "StatefulPartitionedCall/bert_classifier/bert_backbone/transformer_layer_1/feedforward_output_dense/Tensordot/Prod_1"], "attr": {"N": {"i": "2"}, "T": {"type": "DT_INT32"}, "axis": {"i": "0"}}}, {"name": "StatefulPartitionedCall/bert_classifier/bert_backbone/transformer_layer_1/feedforward_output_dense/Tensordot/Reshape", "op": "Reshape", "input": ["StatefulPartitionedCall/bert_classifier/bert_backbone/transformer_layer_1/feedforward_intermediate_dense/Gelu/mul_3", "StatefulPartitionedCall/bert_classifier/bert_backbone/transformer_layer_1/feedforward_output_dense/Tensordot/stack"], "attr": {"T": {"type": "DT_FLOAT"}, "Tshape": {"type": "DT_INT32"}}}, {"name": "StatefulPartitionedCall/bert_classifier/bert_backbone/transformer_layer_1/feedforward_output_dense/Tensordot/MatMul", "op": "MatMul", "input": ["StatefulPartitionedCall/bert_classifier/bert_backbone/transformer_layer_1/feedforward_output_dense/Tensordot/Reshape", "StatefulPartitionedCall/bert_classifier/bert_backbone/transformer_layer_1/feedforward_output_dense/Tensordot/ReadVariableOp"], "device": "/device:CPU:0", "attr": {"transpose_b": {"b": false}, "transpose_a": {"b": false}, "T": {"type": "DT_FLOAT"}}}, {"name": "StatefulPartitionedCall/bert_classifier/bert_backbone/transformer_layer_1/feedforward_output_dense/Tensordot", "op": "Reshape", "input": ["StatefulPartitionedCall/bert_classifier/bert_backbone/transformer_layer_1/feedforward_output_dense/Tensordot/MatMul", "StatefulPartitionedCall/bert_classifier/bert_backbone/transformer_layer_1/feedforward_output_dense/Tensordot/concat_1"], "attr": {"Tshape": {"type": "DT_INT32"}, "T": {"type": "DT_FLOAT"}}}, {"name": "StatefulPartitionedCall/bert_classifier/bert_backbone/transformer_layer_1/feedforward_output_dense/BiasAdd", "op": "BiasAdd", "input": ["StatefulPartitionedCall/bert_classifier/bert_backbone/transformer_layer_1/feedforward_output_dense/Tensordot", "StatefulPartitionedCall/bert_classifier/bert_backbone/transformer_layer_1/feedforward_output_dense/BiasAdd/ReadVariableOp"], "attr": {"data_format": {"s": "TkhXQw=="}, "T": {"type": "DT_FLOAT"}}}, {"name": "StatefulPartitionedCall/bert_classifier/bert_backbone/transformer_layer_1/add_1", "op": "AddV2", "input": ["StatefulPartitionedCall/bert_classifier/bert_backbone/transformer_layer_1/feedforward_output_dense/BiasAdd", "StatefulPartitionedCall/bert_classifier/bert_backbone/transformer_layer_1/self_attention_layer_norm/batchnorm/add_1"], "attr": {"T": {"type": "DT_FLOAT"}}}, {"name": "StatefulPartitionedCall/bert_classifier/bert_backbone/transformer_layer_1/feedforward_layer_norm/moments/mean", "op": "Mean", "input": ["StatefulPartitionedCall/bert_classifier/bert_backbone/transformer_layer_1/add_1", "StatefulPartitionedCall/bert_classifier/bert_backbone/transformer_layer_1/feedforward_layer_norm/moments/mean/reduction_indices"], "attr": {"Tidx": {"type": "DT_INT32"}, "keep_dims": {"b": true}, "T": {"type": "DT_FLOAT"}}}, {"name": "StatefulPartitionedCall/bert_classifier/bert_backbone/transformer_layer_1/feedforward_layer_norm/moments/SquaredDifference", "op": "SquaredDifference", "input": ["StatefulPartitionedCall/bert_classifier/bert_backbone/transformer_layer_1/add_1", "StatefulPartitionedCall/bert_classifier/bert_backbone/transformer_layer_1/feedforward_layer_norm/moments/mean"], "attr": {"T": {"type": "DT_FLOAT"}}}, {"name": "StatefulPartitionedCall/bert_classifier/bert_backbone/transformer_layer_1/feedforward_layer_norm/moments/variance", "op": "Mean", "input": ["StatefulPartitionedCall/bert_classifier/bert_backbone/transformer_layer_1/feedforward_layer_norm/moments/SquaredDifference", "StatefulPartitionedCall/bert_classifier/bert_backbone/transformer_layer_1/feedforward_layer_norm/moments/variance/reduction_indices"], "attr": {"keep_dims": {"b": true}, "Tidx": {"type": "DT_INT32"}, "T": {"type": "DT_FLOAT"}}}, {"name": "StatefulPartitionedCall/bert_classifier/bert_backbone/transformer_layer_1/feedforward_layer_norm/batchnorm/add", "op": "AddV2", "input": ["StatefulPartitionedCall/bert_classifier/bert_backbone/transformer_layer_1/feedforward_layer_norm/moments/variance", "StatefulPartitionedCall/bert_classifier/bert_backbone/transformer_layer_1/feedforward_layer_norm/batchnorm/add/y"], "attr": {"T": {"type": "DT_FLOAT"}}}, {"name": "StatefulPartitionedCall/bert_classifier/bert_backbone/transformer_layer_1/feedforward_layer_norm/batchnorm/Rsqrt", "op": "Rsqrt", "input": ["StatefulPartitionedCall/bert_classifier/bert_backbone/transformer_layer_1/feedforward_layer_norm/batchnorm/add"], "attr": {"T": {"type": "DT_FLOAT"}}}, {"name": "StatefulPartitionedCall/bert_classifier/bert_backbone/transformer_layer_1/feedforward_layer_norm/batchnorm/mul", "op": "Mul", "input": ["StatefulPartitionedCall/bert_classifier/bert_backbone/transformer_layer_1/feedforward_layer_norm/batchnorm/Rsqrt", "StatefulPartitionedCall/bert_classifier/bert_backbone/transformer_layer_1/feedforward_layer_norm/batchnorm/mul/ReadVariableOp"], "attr": {"T": {"type": "DT_FLOAT"}}}, {"name": "StatefulPartitionedCall/bert_classifier/bert_backbone/transformer_layer_1/feedforward_layer_norm/batchnorm/mul_2", "op": "Mul", "input": ["StatefulPartitionedCall/bert_classifier/bert_backbone/transformer_layer_1/feedforward_layer_norm/moments/mean", "StatefulPartitionedCall/bert_classifier/bert_backbone/transformer_layer_1/feedforward_layer_norm/batchnorm/mul"], "attr": {"T": {"type": "DT_FLOAT"}}}, {"name": "StatefulPartitionedCall/bert_classifier/bert_backbone/transformer_layer_1/feedforward_layer_norm/batchnorm/mul_1", "op": "Mul", "input": ["StatefulPartitionedCall/bert_classifier/bert_backbone/transformer_layer_1/add_1", "StatefulPartitionedCall/bert_classifier/bert_backbone/transformer_layer_1/feedforward_layer_norm/batchnorm/mul"], "attr": {"T": {"type": "DT_FLOAT"}}}, {"name": "StatefulPartitionedCall/bert_classifier/bert_backbone/transformer_layer_1/feedforward_layer_norm/batchnorm/sub", "op": "Sub", "input": ["StatefulPartitionedCall/bert_classifier/bert_backbone/transformer_layer_1/feedforward_layer_norm/batchnorm/ReadVariableOp", "StatefulPartitionedCall/bert_classifier/bert_backbone/transformer_layer_1/feedforward_layer_norm/batchnorm/mul_2"], "attr": {"T": {"type": "DT_FLOAT"}}}, {"name": "StatefulPartitionedCall/bert_classifier/bert_backbone/transformer_layer_1/feedforward_layer_norm/batchnorm/add_1", "op": "AddV2", "input": ["StatefulPartitionedCall/bert_classifier/bert_backbone/transformer_layer_1/feedforward_layer_norm/batchnorm/mul_1", "StatefulPartitionedCall/bert_classifier/bert_backbone/transformer_layer_1/feedforward_layer_norm/batchnorm/sub"], "attr": {"T": {"type": "DT_FLOAT"}}}, {"name": "StatefulPartitionedCall/bert_classifier/bert_backbone/pooled_dense/Tensordot/Shape", "op": "Shape", "input": ["StatefulPartitionedCall/bert_classifier/bert_backbone/transformer_layer_1/feedforward_layer_norm/batchnorm/add_1"], "attr": {"out_type": {"type": "DT_INT32"}, "T": {"type": "DT_FLOAT"}}, "experimentalType": {"typeId": "TFT_PRODUCT", "args": [{"typeId": "TFT_SHAPE_TENSOR", "args": [{"typeId": "TFT_INT32"}]}]}}, {"name": "StatefulPartitionedCall/bert_classifier/bert_backbone/pooled_dense/Tensordot/GatherV2_1", "op": "GatherV2", "input": ["StatefulPartitionedCall/bert_classifier/bert_backbone/pooled_dense/Tensordot/Shape", "StatefulPartitionedCall/bert_classifier/bert_backbone/pooled_dense/Tensordot/axes", "StatefulPartitionedCall/bert_classifier/bert_backbone/pooled_dense/Tensordot/GatherV2_1/axis"], "attr": {"batch_dims": {"i": "0"}, "Taxis": {"type": "DT_INT32"}, "Tindices": {"type": "DT_INT32"}, "Tparams": {"type": "DT_INT32"}}}, {"name": "StatefulPartitionedCall/bert_classifier/bert_backbone/pooled_dense/Tensordot/GatherV2", "op": "GatherV2", "input": ["StatefulPartitionedCall/bert_classifier/bert_backbone/pooled_dense/Tensordot/Shape", "StatefulPartitionedCall/bert_classifier/bert_backbone/pooled_dense/Tensordot/free", "StatefulPartitionedCall/bert_classifier/bert_backbone/pooled_dense/Tensordot/GatherV2/axis"], "attr": {"batch_dims": {"i": "0"}, "Taxis": {"type": "DT_INT32"}, "Tparams": {"type": "DT_INT32"}, "Tindices": {"type": "DT_INT32"}}}, {"name": "StatefulPartitionedCall/bert_classifier/bert_backbone/pooled_dense/Tensordot/Prod_1", "op": "Prod", "input": ["StatefulPartitionedCall/bert_classifier/bert_backbone/pooled_dense/Tensordot/GatherV2_1", "StatefulPartitionedCall/bert_classifier/bert_backbone/pooled_dense/Tensordot/Const_1"], "attr": {"T": {"type": "DT_INT32"}, "Tidx": {"type": "DT_INT32"}, "keep_dims": {"b": false}}}, {"name": "StatefulPartitionedCall/bert_classifier/bert_backbone/pooled_dense/Tensordot/Prod", "op": "Prod", "input": ["StatefulPartitionedCall/bert_classifier/bert_backbone/pooled_dense/Tensordot/GatherV2", "StatefulPartitionedCall/bert_classifier/bert_backbone/pooled_dense/Tensordot/Const"], "attr": {"T": {"type": "DT_INT32"}, "Tidx": {"type": "DT_INT32"}, "keep_dims": {"b": false}}}, {"name": "StatefulPartitionedCall/bert_classifier/bert_backbone/pooled_dense/Tensordot/concat_1", "op": "ConcatV2", "input": ["StatefulPartitionedCall/bert_classifier/bert_backbone/pooled_dense/Tensordot/GatherV2", "StatefulPartitionedCall/bert_classifier/bert_backbone/pooled_dense/Tensordot/Const_2", "StatefulPartitionedCall/bert_classifier/bert_backbone/pooled_dense/Tensordot/concat_1/axis"], "attr": {"N": {"i": "2"}, "Tidx": {"type": "DT_INT32"}, "T": {"type": "DT_INT32"}}}, {"name": "StatefulPartitionedCall/bert_classifier/bert_backbone/pooled_dense/Tensordot/stack", "op": "Pack", "input": ["StatefulPartitionedCall/bert_classifier/bert_backbone/pooled_dense/Tensordot/Prod", "StatefulPartitionedCall/bert_classifier/bert_backbone/pooled_dense/Tensordot/Prod_1"], "attr": {"N": {"i": "2"}, "axis": {"i": "0"}, "T": {"type": "DT_INT32"}}}, {"name": "StatefulPartitionedCall/bert_classifier/bert_backbone/pooled_dense/Tensordot/Reshape", "op": "Reshape", "input": ["StatefulPartitionedCall/bert_classifier/bert_backbone/transformer_layer_1/feedforward_layer_norm/batchnorm/add_1", "StatefulPartitionedCall/bert_classifier/bert_backbone/pooled_dense/Tensordot/stack"], "attr": {"T": {"type": "DT_FLOAT"}, "Tshape": {"type": "DT_INT32"}}}, {"name": "StatefulPartitionedCall/bert_classifier/bert_backbone/pooled_dense/Tensordot/MatMul", "op": "MatMul", "input": ["StatefulPartitionedCall/bert_classifier/bert_backbone/pooled_dense/Tensordot/Reshape", "StatefulPartitionedCall/bert_classifier/bert_backbone/pooled_dense/Tensordot/ReadVariableOp"], "device": "/device:CPU:0", "attr": {"transpose_a": {"b": false}, "T": {"type": "DT_FLOAT"}, "transpose_b": {"b": false}}}, {"name": "StatefulPartitionedCall/bert_classifier/bert_backbone/pooled_dense/Tensordot", "op": "Reshape", "input": ["StatefulPartitionedCall/bert_classifier/bert_backbone/pooled_dense/Tensordot/MatMul", "StatefulPartitionedCall/bert_classifier/bert_backbone/pooled_dense/Tensordot/concat_1"], "attr": {"Tshape": {"type": "DT_INT32"}, "T": {"type": "DT_FLOAT"}}}, {"name": "StatefulPartitionedCall/bert_classifier/bert_backbone/pooled_dense/BiasAdd", "op": "BiasAdd", "input": ["StatefulPartitionedCall/bert_classifier/bert_backbone/pooled_dense/Tensordot", "StatefulPartitionedCall/bert_classifier/bert_backbone/pooled_dense/BiasAdd/ReadVariableOp"], "attr": {"data_format": {"s": "TkhXQw=="}, "T": {"type": "DT_FLOAT"}}}, {"name": "StatefulPartitionedCall/bert_classifier/bert_backbone/pooled_dense/Tanh", "op": "Tanh", "input": ["StatefulPartitionedCall/bert_classifier/bert_backbone/pooled_dense/BiasAdd"], "attr": {"T": {"type": "DT_FLOAT"}}}, {"name": "StatefulPartitionedCall/bert_classifier/bert_backbone/tf.__operators__.getitem/strided_slice", "op": "StridedSlice", "input": ["StatefulPartitionedCall/bert_classifier/bert_backbone/pooled_dense/Tanh", "StatefulPartitionedCall/bert_classifier/bert_backbone/tf.__operators__.getitem/strided_slice/stack", "StatefulPartitionedCall/bert_classifier/bert_backbone/tf.__operators__.getitem/strided_slice/stack_1", "StatefulPartitionedCall/bert_classifier/bert_backbone/tf.__operators__.getitem/strided_slice/stack_2"], "attr": {"new_axis_mask": {"i": "0"}, "T": {"type": "DT_FLOAT"}, "Index": {"type": "DT_INT32"}, "end_mask": {"i": "5"}, "ellipsis_mask": {"i": "0"}, "shrink_axis_mask": {"i": "2"}, "begin_mask": {"i": "5"}}}, {"name": "StatefulPartitionedCall/bert_classifier/logits/BiasAdd", "op": "_FusedMatMul", "input": ["StatefulPartitionedCall/bert_classifier/bert_backbone/tf.__operators__.getitem/strided_slice", "StatefulPartitionedCall/bert_classifier/logits/MatMul/ReadVariableOp", "StatefulPartitionedCall/bert_classifier/logits/BiasAdd/ReadVariableOp"], "device": "/device:CPU:0", "attr": {"leakyrelu_alpha": {"f": 0.2}, "T": {"type": "DT_FLOAT"}, "num_args": {"i": "1"}, "fused_ops": {"list": {"s": ["Qmlhc0FkZA=="]}}, "transpose_a": {"b": false}, "epsilon": {"f": 0.0}, "transpose_b": {"b": false}}}, {"name": "Identity", "op": "Identity", "input": ["StatefulPartitionedCall/bert_classifier/logits/BiasAdd"], "attr": {"T": {"type": "DT_FLOAT"}}}], "library": {}, "versions": {"producer": 1645}}, "weightsManifest": [{"paths": ["group1-shard1of5.bin", "group1-shard2of5.bin", "group1-shard3of5.bin", "group1-shard4of5.bin", "group1-shard5of5.bin"], "weights": [{"name": "StatefulPartitionedCall/bert_classifier/bert_backbone/pooled_dense/Tensordot/Const", "shape": [1], "dtype": "int32"}, {"name": "StatefulPartitionedCall/bert_classifier/bert_backbone/pooled_dense/Tensordot/axes", "shape": [1], "dtype": "int32"}, {"name": "StatefulPartitionedCall/bert_classifier/bert_backbone/pooled_dense/Tensordot/GatherV2_1/axis", "shape": [], "dtype": "int32"}, {"name": "StatefulPartitionedCall/bert_classifier/bert_backbone/pooled_dense/Tensordot/Const_1", "shape": [1], "dtype": "int32"}, {"name": "StatefulPartitionedCall/bert_classifier/bert_backbone/pooled_dense/Tensordot/ReadVariableOp", "shape": [128, 128], "dtype": "float32"}, {"name": "StatefulPartitionedCall/bert_classifier/bert_backbone/transformer_layer_1/feedforward_layer_norm/batchnorm/ReadVariableOp", "shape": [128], "dtype": "float32"}, {"name": "StatefulPartitionedCall/bert_classifier/bert_backbone/transformer_layer_1/feedforward_output_dense/Tensordot/Const", "shape": [1], "dtype": "int32"}, {"name": "StatefulPartitionedCall/bert_classifier/bert_backbone/transformer_layer_1/feedforward_output_dense/Tensordot/axes", "shape": [1], "dtype": "int32"}, {"name": "StatefulPartitionedCall/bert_classifier/bert_backbone/transformer_layer_1/feedforward_output_dense/Tensordot/GatherV2_1/axis", "shape": [], "dtype": "int32"}, {"name": "StatefulPartitionedCall/bert_classifier/bert_backbone/transformer_layer_1/feedforward_output_dense/Tensordot/Const_1", "shape": [1], "dtype": "int32"}, {"name": "StatefulPartitionedCall/bert_classifier/bert_backbone/transformer_layer_1/feedforward_output_dense/Tensordot/ReadVariableOp", "shape": [512, 128], "dtype": "float32"}, {"name": "StatefulPartitionedCall/bert_classifier/bert_backbone/transformer_layer_1/feedforward_intermediate_dense/Gelu/mul/x", "shape": [], "dtype": "float32"}, {"name": "StatefulPartitionedCall/bert_classifier/bert_backbone/transformer_layer_1/feedforward_intermediate_dense/Gelu/add_1/x", "shape": [], "dtype": "float32"}, {"name": "StatefulPartitionedCall/bert_classifier/bert_backbone/transformer_layer_1/feedforward_intermediate_dense/Gelu/mul_2/x", "shape": [], "dtype": "float32"}, {"name": "StatefulPartitionedCall/bert_classifier/bert_backbone/transformer_layer_1/feedforward_intermediate_dense/Gelu/Cast/x", "shape": [], "dtype": "float32"}, {"name": "StatefulPartitionedCall/bert_classifier/bert_backbone/transformer_layer_1/feedforward_intermediate_dense/Tensordot/Const", "shape": [1], "dtype": "int32"}, {"name": "StatefulPartitionedCall/bert_classifier/bert_backbone/transformer_layer_1/feedforward_intermediate_dense/Tensordot/axes", "shape": [1], "dtype": "int32"}, {"name": "StatefulPartitionedCall/bert_classifier/bert_backbone/transformer_layer_1/feedforward_intermediate_dense/Tensordot/GatherV2_1/axis", "shape": [], "dtype": "int32"}, {"name": "StatefulPartitionedCall/bert_classifier/bert_backbone/transformer_layer_1/feedforward_intermediate_dense/Tensordot/Const_1", "shape": [1], "dtype": "int32"}, {"name": "StatefulPartitionedCall/bert_classifier/bert_backbone/transformer_layer_1/feedforward_intermediate_dense/Tensordot/ReadVariableOp", "shape": [128, 512], "dtype": "float32"}, {"name": "StatefulPartitionedCall/bert_classifier/bert_backbone/transformer_layer_1/feedforward_intermediate_dense/Tensordot/free", "shape": [2], "dtype": "int32"}, {"name": "StatefulPartitionedCall/bert_classifier/bert_backbone/transformer_layer_1/feedforward_intermediate_dense/Tensordot/GatherV2/axis", "shape": [], "dtype": "int32"}, {"name": "StatefulPartitionedCall/bert_classifier/bert_backbone/transformer_layer_1/feedforward_intermediate_dense/Tensordot/Const_2", "shape": [1], "dtype": "int32"}, {"name": "StatefulPartitionedCall/bert_classifier/bert_backbone/transformer_layer_1/feedforward_intermediate_dense/Tensordot/concat_1/axis", "shape": [], "dtype": "int32"}, {"name": "StatefulPartitionedCall/bert_classifier/bert_backbone/transformer_layer_1/feedforward_intermediate_dense/BiasAdd/ReadVariableOp", "shape": [512], "dtype": "float32"}, {"name": "StatefulPartitionedCall/bert_classifier/bert_backbone/transformer_layer_1/feedforward_intermediate_dense/Gelu/Pow/y", "shape": [], "dtype": "float32"}, {"name": "StatefulPartitionedCall/bert_classifier/bert_backbone/transformer_layer_1/feedforward_output_dense/Tensordot/free", "shape": [2], "dtype": "int32"}, {"name": "StatefulPartitionedCall/bert_classifier/bert_backbone/transformer_layer_1/feedforward_output_dense/Tensordot/GatherV2/axis", "shape": [], "dtype": "int32"}, {"name": "StatefulPartitionedCall/bert_classifier/bert_backbone/transformer_layer_1/feedforward_output_dense/Tensordot/Const_2", "shape": [1], "dtype": "int32"}, {"name": "StatefulPartitionedCall/bert_classifier/bert_backbone/transformer_layer_1/feedforward_output_dense/Tensordot/concat_1/axis", "shape": [], "dtype": "int32"}, {"name": "StatefulPartitionedCall/bert_classifier/bert_backbone/transformer_layer_1/feedforward_output_dense/BiasAdd/ReadVariableOp", "shape": [128], "dtype": "float32"}, {"name": "StatefulPartitionedCall/bert_classifier/bert_backbone/transformer_layer_1/self_attention_layer_norm/batchnorm/ReadVariableOp", "shape": [128], "dtype": "float32"}, {"name": "StatefulPartitionedCall/bert_classifier/bert_backbone/transformer_layer_1/self_attention_layer/key/einsum/Einsum/ReadVariableOp", "shape": [128, 2, 64], "dtype": "float32"}, {"name": "StatefulPartitionedCall/bert_classifier/bert_backbone/transformer_layer_1/self_attention_layer/key/add/ReadVariableOp", "shape": [2, 64], "dtype": "float32"}, {"name": "StatefulPartitionedCall/bert_classifier/bert_backbone/transformer_layer_1/self_attention_layer/query/einsum/Einsum/ReadVariableOp", "shape": [128, 2, 64], "dtype": "float32"}, {"name": "StatefulPartitionedCall/bert_classifier/bert_backbone/transformer_layer_1/self_attention_layer/query/add/ReadVariableOp", "shape": [2, 64], "dtype": "float32"}, {"name": "StatefulPartitionedCall/bert_classifier/bert_backbone/transformer_layer_1/self_attention_layer/Mul/y", "shape": [], "dtype": "float32"}, {"name": "StatefulPartitionedCall/bert_classifier/bert_backbone/transformer_layer_1/self_attention_layer/softmax/sub/x", "shape": [], "dtype": "float32"}, {"name": "StatefulPartitionedCall/bert_classifier/bert_backbone/transformer_layer_1/ExpandDims/dim", "shape": [], "dtype": "int32"}, {"name": "StatefulPartitionedCall/bert_classifier/bert_backbone/transformer_layer_1/self_attention_layer/ExpandDims/dim", "shape": [], "dtype": "int32"}, {"name": "StatefulPartitionedCall/bert_classifier/bert_backbone/transformer_layer_1/self_attention_layer/softmax/mul/y", "shape": [], "dtype": "float32"}, {"name": "StatefulPartitionedCall/bert_classifier/bert_backbone/transformer_layer_1/self_attention_layer/value/einsum/Einsum/ReadVariableOp", "shape": [128, 2, 64], "dtype": "float32"}, {"name": "StatefulPartitionedCall/bert_classifier/bert_backbone/transformer_layer_1/self_attention_layer/value/add/ReadVariableOp", "shape": [2, 64], "dtype": "float32"}, {"name": "StatefulPartitionedCall/bert_classifier/bert_backbone/transformer_layer_1/self_attention_layer/attention_output/einsum/Einsum/ReadVariableOp", "shape": [2, 64, 128], "dtype": "float32"}, {"name": "StatefulPartitionedCall/bert_classifier/bert_backbone/transformer_layer_1/self_attention_layer/attention_output/add/ReadVariableOp", "shape": [128], "dtype": "float32"}, {"name": "StatefulPartitionedCall/bert_classifier/bert_backbone/transformer_layer_0/feedforward_layer_norm/batchnorm/ReadVariableOp", "shape": [128], "dtype": "float32"}, {"name": "StatefulPartitionedCall/bert_classifier/bert_backbone/transformer_layer_0/feedforward_output_dense/Tensordot/Const", "shape": [1], "dtype": "int32"}, {"name": "StatefulPartitionedCall/bert_classifier/bert_backbone/transformer_layer_0/feedforward_output_dense/Tensordot/axes", "shape": [1], "dtype": "int32"}, {"name": "StatefulPartitionedCall/bert_classifier/bert_backbone/transformer_layer_0/feedforward_output_dense/Tensordot/GatherV2_1/axis", "shape": [], "dtype": "int32"}, {"name": "StatefulPartitionedCall/bert_classifier/bert_backbone/transformer_layer_0/feedforward_output_dense/Tensordot/Const_1", "shape": [1], "dtype": "int32"}, {"name": "StatefulPartitionedCall/bert_classifier/bert_backbone/transformer_layer_0/feedforward_output_dense/Tensordot/ReadVariableOp", "shape": [512, 128], "dtype": "float32"}, {"name": "StatefulPartitionedCall/bert_classifier/bert_backbone/transformer_layer_0/feedforward_intermediate_dense/Gelu/mul/x", "shape": [], "dtype": "float32"}, {"name": "StatefulPartitionedCall/bert_classifier/bert_backbone/transformer_layer_0/feedforward_intermediate_dense/Gelu/add_1/x", "shape": [], "dtype": "float32"}, {"name": "StatefulPartitionedCall/bert_classifier/bert_backbone/transformer_layer_0/feedforward_intermediate_dense/Gelu/mul_2/x", "shape": [], "dtype": "float32"}, {"name": "StatefulPartitionedCall/bert_classifier/bert_backbone/transformer_layer_0/feedforward_intermediate_dense/Gelu/Cast/x", "shape": [], "dtype": "float32"}, {"name": "StatefulPartitionedCall/bert_classifier/bert_backbone/transformer_layer_0/feedforward_intermediate_dense/Tensordot/Const", "shape": [1], "dtype": "int32"}, {"name": "StatefulPartitionedCall/bert_classifier/bert_backbone/transformer_layer_0/feedforward_intermediate_dense/Tensordot/axes", "shape": [1], "dtype": "int32"}, {"name": "StatefulPartitionedCall/bert_classifier/bert_backbone/transformer_layer_0/feedforward_intermediate_dense/Tensordot/GatherV2_1/axis", "shape": [], "dtype": "int32"}, {"name": "StatefulPartitionedCall/bert_classifier/bert_backbone/transformer_layer_0/feedforward_intermediate_dense/Tensordot/Const_1", "shape": [1], "dtype": "int32"}, {"name": "StatefulPartitionedCall/bert_classifier/bert_backbone/transformer_layer_0/feedforward_intermediate_dense/Tensordot/ReadVariableOp", "shape": [128, 512], "dtype": "float32"}, {"name": "StatefulPartitionedCall/bert_classifier/bert_backbone/transformer_layer_0/feedforward_intermediate_dense/Tensordot/free", "shape": [2], "dtype": "int32"}, {"name": "StatefulPartitionedCall/bert_classifier/bert_backbone/transformer_layer_0/feedforward_intermediate_dense/Tensordot/GatherV2/axis", "shape": [], "dtype": "int32"}, {"name": "StatefulPartitionedCall/bert_classifier/bert_backbone/transformer_layer_0/feedforward_intermediate_dense/Tensordot/Const_2", "shape": [1], "dtype": "int32"}, {"name": "StatefulPartitionedCall/bert_classifier/bert_backbone/transformer_layer_0/feedforward_intermediate_dense/Tensordot/concat_1/axis", "shape": [], "dtype": "int32"}, {"name": "StatefulPartitionedCall/bert_classifier/bert_backbone/transformer_layer_0/feedforward_intermediate_dense/BiasAdd/ReadVariableOp", "shape": [512], "dtype": "float32"}, {"name": "StatefulPartitionedCall/bert_classifier/bert_backbone/transformer_layer_0/feedforward_intermediate_dense/Gelu/Pow/y", "shape": [], "dtype": "float32"}, {"name": "StatefulPartitionedCall/bert_classifier/bert_backbone/transformer_layer_0/feedforward_output_dense/Tensordot/free", "shape": [2], "dtype": "int32"}, {"name": "StatefulPartitionedCall/bert_classifier/bert_backbone/transformer_layer_0/feedforward_output_dense/Tensordot/GatherV2/axis", "shape": [], "dtype": "int32"}, {"name": "StatefulPartitionedCall/bert_classifier/bert_backbone/transformer_layer_0/feedforward_output_dense/Tensordot/Const_2", "shape": [1], "dtype": "int32"}, {"name": "StatefulPartitionedCall/bert_classifier/bert_backbone/transformer_layer_0/feedforward_output_dense/Tensordot/concat_1/axis", "shape": [], "dtype": "int32"}, {"name": "StatefulPartitionedCall/bert_classifier/bert_backbone/transformer_layer_0/feedforward_output_dense/BiasAdd/ReadVariableOp", "shape": [128], "dtype": "float32"}, {"name": "StatefulPartitionedCall/bert_classifier/bert_backbone/transformer_layer_0/self_attention_layer_norm/batchnorm/ReadVariableOp", "shape": [128], "dtype": "float32"}, {"name": "StatefulPartitionedCall/bert_classifier/bert_backbone/transformer_layer_0/self_attention_layer/key/einsum/Einsum/ReadVariableOp", "shape": [128, 2, 64], "dtype": "float32"}, {"name": "StatefulPartitionedCall/bert_classifier/bert_backbone/transformer_layer_0/self_attention_layer/key/add/ReadVariableOp", "shape": [2, 64], "dtype": "float32"}, {"name": "StatefulPartitionedCall/bert_classifier/bert_backbone/transformer_layer_0/self_attention_layer/query/einsum/Einsum/ReadVariableOp", "shape": [128, 2, 64], "dtype": "float32"}, {"name": "StatefulPartitionedCall/bert_classifier/bert_backbone/transformer_layer_0/self_attention_layer/query/add/ReadVariableOp", "shape": [2, 64], "dtype": "float32"}, {"name": "StatefulPartitionedCall/bert_classifier/bert_backbone/transformer_layer_0/self_attention_layer/Mul/y", "shape": [], "dtype": "float32"}, {"name": "StatefulPartitionedCall/bert_classifier/bert_backbone/transformer_layer_0/self_attention_layer/softmax/sub/x", "shape": [], "dtype": "float32"}, {"name": "StatefulPartitionedCall/bert_classifier/bert_backbone/transformer_layer_0/ExpandDims/dim", "shape": [], "dtype": "int32"}, {"name": "StatefulPartitionedCall/bert_classifier/bert_backbone/transformer_layer_0/self_attention_layer/ExpandDims/dim", "shape": [], "dtype": "int32"}, {"name": "StatefulPartitionedCall/bert_classifier/bert_backbone/transformer_layer_0/self_attention_layer/softmax/mul/y", "shape": [], "dtype": "float32"}, {"name": "StatefulPartitionedCall/bert_classifier/bert_backbone/transformer_layer_0/self_attention_layer/value/einsum/Einsum/ReadVariableOp", "shape": [128, 2, 64], "dtype": "float32"}, {"name": "StatefulPartitionedCall/bert_classifier/bert_backbone/transformer_layer_0/self_attention_layer/value/add/ReadVariableOp", "shape": [2, 64], "dtype": "float32"}, {"name": "StatefulPartitionedCall/bert_classifier/bert_backbone/transformer_layer_0/self_attention_layer/attention_output/einsum/Einsum/ReadVariableOp", "shape": [2, 64, 128], "dtype": "float32"}, {"name": "StatefulPartitionedCall/bert_classifier/bert_backbone/transformer_layer_0/self_attention_layer/attention_output/add/ReadVariableOp", "shape": [128], "dtype": "float32"}, {"name": "StatefulPartitionedCall/bert_classifier/bert_backbone/embeddings_layer_norm/batchnorm/ReadVariableOp", "shape": [128], "dtype": "float32"}, {"name": "StatefulPartitionedCall/bert_classifier/bert_backbone/position_embedding/Slice/ReadVariableOp", "shape": [512, 128], "dtype": "float32"}, {"name": "StatefulPartitionedCall/bert_classifier/bert_backbone/position_embedding/Slice/begin", "shape": [2], "dtype": "int32"}, {"name": "StatefulPartitionedCall/bert_classifier/bert_backbone/position_embedding/Slice/size/1", "shape": [], "dtype": "int32"}, {"name": "StatefulPartitionedCall/bert_classifier/bert_backbone/position_embedding/strided_slice/stack", "shape": [1], "dtype": "int32"}, {"name": "StatefulPartitionedCall/bert_classifier/bert_backbone/position_embedding/strided_slice/stack_1", "shape": [1], "dtype": "int32"}, {"name": "StatefulPartitionedCall/bert_classifier/bert_backbone/position_embedding/strided_slice/stack_2", "shape": [1], "dtype": "int32"}, {"name": "unknown", "shape": [30522, 128], "dtype": "float32"}, {"name": "StatefulPartitionedCall/bert_classifier/bert_backbone/token_embedding/embedding_lookup/axis", "shape": [], "dtype": "int32"}, {"name": "StatefulPartitionedCall/bert_classifier/bert_backbone/position_embedding/strided_slice_1/stack", "shape": [1], "dtype": "int32"}, {"name": "StatefulPartitionedCall/bert_classifier/bert_backbone/position_embedding/strided_slice_1/stack_1", "shape": [1], "dtype": "int32"}, {"name": "StatefulPartitionedCall/bert_classifier/bert_backbone/position_embedding/strided_slice_1/stack_2", "shape": [1], "dtype": "int32"}, {"name": "StatefulPartitionedCall/bert_classifier/bert_backbone/position_embedding/packed/2", "shape": [], "dtype": "int32"}, {"name": "unknown_1", "shape": [2, 128], "dtype": "float32"}, {"name": "StatefulPartitionedCall/bert_classifier/bert_backbone/segment_embedding/embedding_lookup/axis", "shape": [], "dtype": "int32"}, {"name": "StatefulPartitionedCall/bert_classifier/bert_backbone/embeddings_layer_norm/moments/mean/reduction_indices", "shape": [1], "dtype": "int32"}, {"name": "StatefulPartitionedCall/bert_classifier/bert_backbone/embeddings_layer_norm/moments/variance/reduction_indices", "shape": [1], "dtype": "int32"}, {"name": "StatefulPartitionedCall/bert_classifier/bert_backbone/embeddings_layer_norm/batchnorm/add/y", "shape": [], "dtype": "float32"}, {"name": "StatefulPartitionedCall/bert_classifier/bert_backbone/embeddings_layer_norm/batchnorm/mul/ReadVariableOp", "shape": [128], "dtype": "float32"}, {"name": "StatefulPartitionedCall/bert_classifier/bert_backbone/transformer_layer_0/self_attention_layer_norm/moments/mean/reduction_indices", "shape": [1], "dtype": "int32"}, {"name": "StatefulPartitionedCall/bert_classifier/bert_backbone/transformer_layer_0/self_attention_layer_norm/moments/variance/reduction_indices", "shape": [1], "dtype": "int32"}, {"name": "StatefulPartitionedCall/bert_classifier/bert_backbone/transformer_layer_0/self_attention_layer_norm/batchnorm/add/y", "shape": [], "dtype": "float32"}, {"name": "StatefulPartitionedCall/bert_classifier/bert_backbone/transformer_layer_0/self_attention_layer_norm/batchnorm/mul/ReadVariableOp", "shape": [128], "dtype": "float32"}, {"name": "StatefulPartitionedCall/bert_classifier/bert_backbone/transformer_layer_0/feedforward_layer_norm/moments/mean/reduction_indices", "shape": [1], "dtype": "int32"}, {"name": "StatefulPartitionedCall/bert_classifier/bert_backbone/transformer_layer_0/feedforward_layer_norm/moments/variance/reduction_indices", "shape": [1], "dtype": "int32"}, {"name": "StatefulPartitionedCall/bert_classifier/bert_backbone/transformer_layer_0/feedforward_layer_norm/batchnorm/add/y", "shape": [], "dtype": "float32"}, {"name": "StatefulPartitionedCall/bert_classifier/bert_backbone/transformer_layer_0/feedforward_layer_norm/batchnorm/mul/ReadVariableOp", "shape": [128], "dtype": "float32"}, {"name": "StatefulPartitionedCall/bert_classifier/bert_backbone/transformer_layer_1/self_attention_layer_norm/moments/mean/reduction_indices", "shape": [1], "dtype": "int32"}, {"name": "StatefulPartitionedCall/bert_classifier/bert_backbone/transformer_layer_1/self_attention_layer_norm/moments/variance/reduction_indices", "shape": [1], "dtype": "int32"}, {"name": "StatefulPartitionedCall/bert_classifier/bert_backbone/transformer_layer_1/self_attention_layer_norm/batchnorm/add/y", "shape": [], "dtype": "float32"}, {"name": "StatefulPartitionedCall/bert_classifier/bert_backbone/transformer_layer_1/self_attention_layer_norm/batchnorm/mul/ReadVariableOp", "shape": [128], "dtype": "float32"}, {"name": "StatefulPartitionedCall/bert_classifier/bert_backbone/transformer_layer_1/feedforward_layer_norm/moments/mean/reduction_indices", "shape": [1], "dtype": "int32"}, {"name": "StatefulPartitionedCall/bert_classifier/bert_backbone/transformer_layer_1/feedforward_layer_norm/moments/variance/reduction_indices", "shape": [1], "dtype": "int32"}, {"name": "StatefulPartitionedCall/bert_classifier/bert_backbone/transformer_layer_1/feedforward_layer_norm/batchnorm/add/y", "shape": [], "dtype": "float32"}, {"name": "StatefulPartitionedCall/bert_classifier/bert_backbone/transformer_layer_1/feedforward_layer_norm/batchnorm/mul/ReadVariableOp", "shape": [128], "dtype": "float32"}, {"name": "StatefulPartitionedCall/bert_classifier/bert_backbone/pooled_dense/Tensordot/free", "shape": [2], "dtype": "int32"}, {"name": "StatefulPartitionedCall/bert_classifier/bert_backbone/pooled_dense/Tensordot/GatherV2/axis", "shape": [], "dtype": "int32"}, {"name": "StatefulPartitionedCall/bert_classifier/bert_backbone/pooled_dense/Tensordot/Const_2", "shape": [1], "dtype": "int32"}, {"name": "StatefulPartitionedCall/bert_classifier/bert_backbone/pooled_dense/Tensordot/concat_1/axis", "shape": [], "dtype": "int32"}, {"name": "StatefulPartitionedCall/bert_classifier/bert_backbone/pooled_dense/BiasAdd/ReadVariableOp", "shape": [128], "dtype": "float32"}, {"name": "StatefulPartitionedCall/bert_classifier/bert_backbone/tf.__operators__.getitem/strided_slice/stack", "shape": [3], "dtype": "int32"}, {"name": "StatefulPartitionedCall/bert_classifier/bert_backbone/tf.__operators__.getitem/strided_slice/stack_1", "shape": [3], "dtype": "int32"}, {"name": "StatefulPartitionedCall/bert_classifier/bert_backbone/tf.__operators__.getitem/strided_slice/stack_2", "shape": [3], "dtype": "int32"}, {"name": "StatefulPartitionedCall/bert_classifier/logits/MatMul/ReadVariableOp", "shape": [128, 2], "dtype": "float32"}, {"name": "StatefulPartitionedCall/bert_classifier/logits/BiasAdd/ReadVariableOp", "shape": [2], "dtype": "float32"}]}]}